{
  "modelTopology": {
    "node": [
      {
        "name": "strided_slice_2/stack",
        "op": "Const",
        "attr": {
          "value": {
            "tensor": {
              "dtype": "DT_INT32",
              "tensorShape": { "dim": [{ "size": "1" }] }
            }
          },
          "dtype": { "type": "DT_INT32" }
        }
      },
      {
        "name": "strided_slice/stack_1",
        "op": "Const",
        "attr": {
          "value": {
            "tensor": {
              "dtype": "DT_INT32",
              "tensorShape": { "dim": [{ "size": "1" }] }
            }
          },
          "dtype": { "type": "DT_INT32" }
        }
      },
      {
        "name": "ImageTensor",
        "op": "Placeholder",
        "attr": {
          "dtype": { "type": "DT_UINT8" },
          "shape": {
            "shape": {
              "dim": [
                { "size": "1" },
                { "size": "-1" },
                { "size": "-1" },
                { "size": "3" }
              ]
            }
          }
        }
      },
      {
        "name": "Assert/Assert/data_1",
        "op": "Const",
        "attr": {
          "value": { "tensor": { "dtype": "DT_INT32", "tensorShape": {} } },
          "dtype": { "type": "DT_INT32" }
        }
      },
      {
        "name": "strided_slice_2/stack_1",
        "op": "Const",
        "attr": {
          "value": {
            "tensor": {
              "dtype": "DT_INT32",
              "tensorShape": { "dim": [{ "size": "1" }] }
            }
          },
          "dtype": { "type": "DT_INT32" }
        }
      },
      {
        "name": "strided_slice_1/stack",
        "op": "Const",
        "attr": {
          "value": {
            "tensor": {
              "dtype": "DT_INT32",
              "tensorShape": { "dim": [{ "size": "1" }] }
            }
          },
          "dtype": { "type": "DT_INT32" }
        }
      },
      {
        "name": "Slice/size/0",
        "op": "Const",
        "attr": {
          "value": { "tensor": { "dtype": "DT_INT32", "tensorShape": {} } },
          "dtype": { "type": "DT_INT32" }
        }
      },
      {
        "name": "Slice/begin",
        "op": "Const",
        "attr": {
          "dtype": { "type": "DT_INT32" },
          "value": {
            "tensor": {
              "dtype": "DT_INT32",
              "tensorShape": { "dim": [{ "size": "3" }] }
            }
          }
        }
      },
      {
        "name": "strided_slice_6",
        "op": "Const",
        "attr": {
          "value": {
            "tensor": {
              "dtype": "DT_INT32",
              "tensorShape": { "dim": [{ "size": "2" }] }
            }
          },
          "dtype": { "type": "DT_INT32" }
        }
      },
      {
        "name": "ResizeBilinear/size",
        "op": "Const",
        "attr": {
          "value": {
            "tensor": {
              "dtype": "DT_INT32",
              "tensorShape": { "dim": [{ "size": "2" }] }
            }
          },
          "dtype": { "type": "DT_INT32" }
        }
      },
      {
        "name": "logits/semantic/biases",
        "op": "Const",
        "attr": {
          "value": {
            "tensor": {
              "dtype": "DT_FLOAT",
              "tensorShape": { "dim": [{ "size": "21" }] }
            }
          },
          "dtype": { "type": "DT_FLOAT" }
        }
      },
      {
        "name": "logits/semantic/weights",
        "op": "Const",
        "attr": {
          "value": {
            "tensor": {
              "dtype": "DT_FLOAT",
              "tensorShape": {
                "dim": [
                  { "size": "1" },
                  { "size": "1" },
                  { "size": "256" },
                  { "size": "21" }
                ]
              }
            }
          },
          "dtype": { "type": "DT_FLOAT" }
        }
      },
      {
        "name": "concat_projection/BatchNorm/FusedBatchNorm/Offset",
        "op": "Const",
        "attr": {
          "value": {
            "tensor": {
              "dtype": "DT_FLOAT",
              "tensorShape": { "dim": [{ "size": "256" }] }
            }
          },
          "dtype": { "type": "DT_FLOAT" }
        }
      },
      {
        "name": "concat_projection/Conv2D/merged_input",
        "op": "Const",
        "attr": {
          "value": {
            "tensor": {
              "dtype": "DT_FLOAT",
              "tensorShape": {
                "dim": [
                  { "size": "1" },
                  { "size": "1" },
                  { "size": "512" },
                  { "size": "256" }
                ]
              }
            }
          },
          "dtype": { "type": "DT_FLOAT" }
        }
      },
      {
        "name": "aspp0/BatchNorm/FusedBatchNorm/Offset",
        "op": "Const",
        "attr": {
          "value": {
            "tensor": {
              "dtype": "DT_FLOAT",
              "tensorShape": { "dim": [{ "size": "256" }] }
            }
          },
          "dtype": { "type": "DT_FLOAT" }
        }
      },
      {
        "name": "aspp0/Conv2D/merged_input",
        "op": "Const",
        "attr": {
          "value": {
            "tensor": {
              "dtype": "DT_FLOAT",
              "tensorShape": {
                "dim": [
                  { "size": "1" },
                  { "size": "1" },
                  { "size": "160" },
                  { "size": "256" }
                ]
              }
            }
          },
          "dtype": { "type": "DT_FLOAT" }
        }
      },
      {
        "name": "MobilenetV2/expanded_conv_16/project/BatchNorm/FusedBatchNorm/Offset",
        "op": "Const",
        "attr": {
          "value": {
            "tensor": {
              "dtype": "DT_FLOAT",
              "tensorShape": { "dim": [{ "size": "160" }] }
            }
          },
          "dtype": { "type": "DT_FLOAT" }
        }
      },
      {
        "name": "MobilenetV2/expanded_conv_16/project/Conv2D/merged_input",
        "op": "Const",
        "attr": {
          "value": {
            "tensor": {
              "dtype": "DT_FLOAT",
              "tensorShape": {
                "dim": [
                  { "size": "1" },
                  { "size": "1" },
                  { "size": "480" },
                  { "size": "160" }
                ]
              }
            }
          },
          "dtype": { "type": "DT_FLOAT" }
        }
      },
      {
        "name": "MobilenetV2/expanded_conv_16/depthwise/BatchNorm/FusedBatchNorm/Offset",
        "op": "Const",
        "attr": {
          "value": {
            "tensor": {
              "dtype": "DT_FLOAT",
              "tensorShape": { "dim": [{ "size": "480" }] }
            }
          },
          "dtype": { "type": "DT_FLOAT" }
        }
      },
      {
        "name": "MobilenetV2/expanded_conv_16/depthwise/BatchNorm/FusedBatchNorm/Scaled",
        "op": "Const",
        "attr": {
          "value": {
            "tensor": {
              "dtype": "DT_FLOAT",
              "tensorShape": { "dim": [{ "size": "480" }] }
            }
          },
          "dtype": { "type": "DT_FLOAT" }
        }
      },
      {
        "name": "MobilenetV2/expanded_conv_15/depthwise/depthwise/BatchToSpaceND/crops",
        "op": "Const",
        "attr": {
          "value": {
            "tensor": {
              "dtype": "DT_INT32",
              "tensorShape": { "dim": [{ "size": "2" }, { "size": "2" }] }
            }
          },
          "dtype": { "type": "DT_INT32" }
        }
      },
      {
        "name": "MobilenetV2/expanded_conv_15/depthwise/depthwise/SpaceToBatchND/block_shape",
        "op": "Const",
        "attr": {
          "value": {
            "tensor": {
              "dtype": "DT_INT32",
              "tensorShape": { "dim": [{ "size": "2" }] }
            }
          },
          "dtype": { "type": "DT_INT32" }
        }
      },
      {
        "name": "MobilenetV2/expanded_conv_16/depthwise/depthwise_weights",
        "op": "Const",
        "attr": {
          "value": {
            "tensor": {
              "dtype": "DT_FLOAT",
              "tensorShape": {
                "dim": [
                  { "size": "3" },
                  { "size": "3" },
                  { "size": "480" },
                  { "size": "1" }
                ]
              }
            }
          },
          "dtype": { "type": "DT_FLOAT" }
        }
      },
      {
        "name": "MobilenetV2/expanded_conv_15/depthwise/depthwise/SpaceToBatchND/paddings",
        "op": "Const",
        "attr": {
          "value": {
            "tensor": {
              "dtype": "DT_INT32",
              "tensorShape": { "dim": [{ "size": "2" }, { "size": "2" }] }
            }
          },
          "dtype": { "type": "DT_INT32" }
        }
      },
      {
        "name": "MobilenetV2/expanded_conv_16/expand/BatchNorm/FusedBatchNorm/Offset",
        "op": "Const",
        "attr": {
          "value": {
            "tensor": {
              "dtype": "DT_FLOAT",
              "tensorShape": { "dim": [{ "size": "480" }] }
            }
          },
          "dtype": { "type": "DT_FLOAT" }
        }
      },
      {
        "name": "MobilenetV2/expanded_conv_16/expand/Conv2D/merged_input",
        "op": "Const",
        "attr": {
          "value": {
            "tensor": {
              "dtype": "DT_FLOAT",
              "tensorShape": {
                "dim": [
                  { "size": "1" },
                  { "size": "1" },
                  { "size": "80" },
                  { "size": "480" }
                ]
              }
            }
          },
          "dtype": { "type": "DT_FLOAT" }
        }
      },
      {
        "name": "MobilenetV2/expanded_conv_13/project/BatchNorm/FusedBatchNorm/Offset",
        "op": "Const",
        "attr": {
          "value": {
            "tensor": {
              "dtype": "DT_FLOAT",
              "tensorShape": { "dim": [{ "size": "80" }] }
            }
          },
          "dtype": { "type": "DT_FLOAT" }
        }
      },
      {
        "name": "MobilenetV2/expanded_conv_13/project/Conv2D/merged_input",
        "op": "Const",
        "attr": {
          "value": {
            "tensor": {
              "dtype": "DT_FLOAT",
              "tensorShape": {
                "dim": [
                  { "size": "1" },
                  { "size": "1" },
                  { "size": "288" },
                  { "size": "80" }
                ]
              }
            }
          },
          "dtype": { "type": "DT_FLOAT" }
        }
      },
      {
        "name": "MobilenetV2/expanded_conv_13/depthwise/BatchNorm/FusedBatchNorm/Offset",
        "op": "Const",
        "attr": {
          "value": {
            "tensor": {
              "dtype": "DT_FLOAT",
              "tensorShape": { "dim": [{ "size": "288" }] }
            }
          },
          "dtype": { "type": "DT_FLOAT" }
        }
      },
      {
        "name": "MobilenetV2/expanded_conv_13/depthwise/BatchNorm/FusedBatchNorm/Scaled",
        "op": "Const",
        "attr": {
          "value": {
            "tensor": {
              "dtype": "DT_FLOAT",
              "tensorShape": { "dim": [{ "size": "288" }] }
            }
          },
          "dtype": { "type": "DT_FLOAT" }
        }
      },
      {
        "name": "MobilenetV2/expanded_conv_12/depthwise/depthwise/BatchToSpaceND/crops",
        "op": "Const",
        "attr": {
          "value": {
            "tensor": {
              "dtype": "DT_INT32",
              "tensorShape": { "dim": [{ "size": "2" }, { "size": "2" }] }
            }
          },
          "dtype": { "type": "DT_INT32" }
        }
      },
      {
        "name": "MobilenetV2/expanded_conv_12/depthwise/depthwise/SpaceToBatchND/block_shape",
        "op": "Const",
        "attr": {
          "value": {
            "tensor": {
              "dtype": "DT_INT32",
              "tensorShape": { "dim": [{ "size": "2" }] }
            }
          },
          "dtype": { "type": "DT_INT32" }
        }
      },
      {
        "name": "MobilenetV2/expanded_conv_13/depthwise/depthwise_weights",
        "op": "Const",
        "attr": {
          "value": {
            "tensor": {
              "dtype": "DT_FLOAT",
              "tensorShape": {
                "dim": [
                  { "size": "3" },
                  { "size": "3" },
                  { "size": "288" },
                  { "size": "1" }
                ]
              }
            }
          },
          "dtype": { "type": "DT_FLOAT" }
        }
      },
      {
        "name": "MobilenetV2/expanded_conv_12/depthwise/depthwise/SpaceToBatchND/paddings",
        "op": "Const",
        "attr": {
          "value": {
            "tensor": {
              "dtype": "DT_INT32",
              "tensorShape": { "dim": [{ "size": "2" }, { "size": "2" }] }
            }
          },
          "dtype": { "type": "DT_INT32" }
        }
      },
      {
        "name": "MobilenetV2/expanded_conv_13/expand/BatchNorm/FusedBatchNorm/Offset",
        "op": "Const",
        "attr": {
          "value": {
            "tensor": {
              "dtype": "DT_FLOAT",
              "tensorShape": { "dim": [{ "size": "288" }] }
            }
          },
          "dtype": { "type": "DT_FLOAT" }
        }
      },
      {
        "name": "MobilenetV2/expanded_conv_13/expand/Conv2D/merged_input",
        "op": "Const",
        "attr": {
          "value": {
            "tensor": {
              "dtype": "DT_FLOAT",
              "tensorShape": {
                "dim": [
                  { "size": "1" },
                  { "size": "1" },
                  { "size": "48" },
                  { "size": "288" }
                ]
              }
            }
          },
          "dtype": { "type": "DT_FLOAT" }
        }
      },
      {
        "name": "MobilenetV2/expanded_conv_10/project/BatchNorm/FusedBatchNorm/Offset",
        "op": "Const",
        "attr": {
          "value": {
            "tensor": {
              "dtype": "DT_FLOAT",
              "tensorShape": { "dim": [{ "size": "48" }] }
            }
          },
          "dtype": { "type": "DT_FLOAT" }
        }
      },
      {
        "name": "MobilenetV2/expanded_conv_10/project/Conv2D/merged_input",
        "op": "Const",
        "attr": {
          "value": {
            "tensor": {
              "dtype": "DT_FLOAT",
              "tensorShape": {
                "dim": [
                  { "size": "1" },
                  { "size": "1" },
                  { "size": "192" },
                  { "size": "48" }
                ]
              }
            }
          },
          "dtype": { "type": "DT_FLOAT" }
        }
      },
      {
        "name": "MobilenetV2/expanded_conv_10/depthwise/BatchNorm/FusedBatchNorm/Offset",
        "op": "Const",
        "attr": {
          "value": {
            "tensor": {
              "dtype": "DT_FLOAT",
              "tensorShape": { "dim": [{ "size": "192" }] }
            }
          },
          "dtype": { "type": "DT_FLOAT" }
        }
      },
      {
        "name": "MobilenetV2/expanded_conv_10/depthwise/BatchNorm/FusedBatchNorm/Scaled",
        "op": "Const",
        "attr": {
          "value": {
            "tensor": {
              "dtype": "DT_FLOAT",
              "tensorShape": { "dim": [{ "size": "192" }] }
            }
          },
          "dtype": { "type": "DT_FLOAT" }
        }
      },
      {
        "name": "MobilenetV2/expanded_conv_10/depthwise/depthwise_weights",
        "op": "Const",
        "attr": {
          "dtype": { "type": "DT_FLOAT" },
          "value": {
            "tensor": {
              "dtype": "DT_FLOAT",
              "tensorShape": {
                "dim": [
                  { "size": "3" },
                  { "size": "3" },
                  { "size": "192" },
                  { "size": "1" }
                ]
              }
            }
          }
        }
      },
      {
        "name": "MobilenetV2/expanded_conv_10/expand/BatchNorm/FusedBatchNorm/Offset",
        "op": "Const",
        "attr": {
          "value": {
            "tensor": {
              "dtype": "DT_FLOAT",
              "tensorShape": { "dim": [{ "size": "192" }] }
            }
          },
          "dtype": { "type": "DT_FLOAT" }
        }
      },
      {
        "name": "MobilenetV2/expanded_conv_10/expand/Conv2D/merged_input",
        "op": "Const",
        "attr": {
          "value": {
            "tensor": {
              "dtype": "DT_FLOAT",
              "tensorShape": {
                "dim": [
                  { "size": "1" },
                  { "size": "1" },
                  { "size": "32" },
                  { "size": "192" }
                ]
              }
            }
          },
          "dtype": { "type": "DT_FLOAT" }
        }
      },
      {
        "name": "MobilenetV2/expanded_conv_6/project/BatchNorm/FusedBatchNorm/Offset",
        "op": "Const",
        "attr": {
          "value": {
            "tensor": {
              "dtype": "DT_FLOAT",
              "tensorShape": { "dim": [{ "size": "32" }] }
            }
          },
          "dtype": { "type": "DT_FLOAT" }
        }
      },
      {
        "name": "MobilenetV2/expanded_conv_6/project/Conv2D/merged_input",
        "op": "Const",
        "attr": {
          "value": {
            "tensor": {
              "dtype": "DT_FLOAT",
              "tensorShape": {
                "dim": [
                  { "size": "1" },
                  { "size": "1" },
                  { "size": "96" },
                  { "size": "32" }
                ]
              }
            }
          },
          "dtype": { "type": "DT_FLOAT" }
        }
      },
      {
        "name": "MobilenetV2/expanded_conv_6/depthwise/BatchNorm/FusedBatchNorm/Offset",
        "op": "Const",
        "attr": {
          "dtype": { "type": "DT_FLOAT" },
          "value": {
            "tensor": {
              "dtype": "DT_FLOAT",
              "tensorShape": { "dim": [{ "size": "96" }] }
            }
          }
        }
      },
      {
        "name": "MobilenetV2/expanded_conv_6/depthwise/BatchNorm/FusedBatchNorm/Scaled",
        "op": "Const",
        "attr": {
          "value": {
            "tensor": {
              "dtype": "DT_FLOAT",
              "tensorShape": { "dim": [{ "size": "96" }] }
            }
          },
          "dtype": { "type": "DT_FLOAT" }
        }
      },
      {
        "name": "MobilenetV2/expanded_conv_6/depthwise/depthwise_weights",
        "op": "Const",
        "attr": {
          "value": {
            "tensor": {
              "dtype": "DT_FLOAT",
              "tensorShape": {
                "dim": [
                  { "size": "3" },
                  { "size": "3" },
                  { "size": "96" },
                  { "size": "1" }
                ]
              }
            }
          },
          "dtype": { "type": "DT_FLOAT" }
        }
      },
      {
        "name": "MobilenetV2/expanded_conv_6/expand/BatchNorm/FusedBatchNorm/Offset",
        "op": "Const",
        "attr": {
          "dtype": { "type": "DT_FLOAT" },
          "value": {
            "tensor": {
              "dtype": "DT_FLOAT",
              "tensorShape": { "dim": [{ "size": "96" }] }
            }
          }
        }
      },
      {
        "name": "MobilenetV2/expanded_conv_6/expand/Conv2D/merged_input",
        "op": "Const",
        "attr": {
          "value": {
            "tensor": {
              "dtype": "DT_FLOAT",
              "tensorShape": {
                "dim": [
                  { "size": "1" },
                  { "size": "1" },
                  { "size": "16" },
                  { "size": "96" }
                ]
              }
            }
          },
          "dtype": { "type": "DT_FLOAT" }
        }
      },
      {
        "name": "MobilenetV2/expanded_conv_3/project/BatchNorm/FusedBatchNorm/Offset",
        "op": "Const",
        "attr": {
          "value": {
            "tensor": {
              "dtype": "DT_FLOAT",
              "tensorShape": { "dim": [{ "size": "16" }] }
            }
          },
          "dtype": { "type": "DT_FLOAT" }
        }
      },
      {
        "name": "MobilenetV2/expanded_conv_3/project/Conv2D/merged_input",
        "op": "Const",
        "attr": {
          "value": {
            "tensor": {
              "dtype": "DT_FLOAT",
              "tensorShape": {
                "dim": [
                  { "size": "1" },
                  { "size": "1" },
                  { "size": "72" },
                  { "size": "16" }
                ]
              }
            }
          },
          "dtype": { "type": "DT_FLOAT" }
        }
      },
      {
        "name": "MobilenetV2/expanded_conv_3/depthwise/BatchNorm/FusedBatchNorm/Offset",
        "op": "Const",
        "attr": {
          "value": {
            "tensor": {
              "dtype": "DT_FLOAT",
              "tensorShape": { "dim": [{ "size": "72" }] }
            }
          },
          "dtype": { "type": "DT_FLOAT" }
        }
      },
      {
        "name": "MobilenetV2/expanded_conv_3/depthwise/BatchNorm/FusedBatchNorm/Scaled",
        "op": "Const",
        "attr": {
          "value": {
            "tensor": {
              "dtype": "DT_FLOAT",
              "tensorShape": { "dim": [{ "size": "72" }] }
            }
          },
          "dtype": { "type": "DT_FLOAT" }
        }
      },
      {
        "name": "MobilenetV2/expanded_conv_3/depthwise/depthwise_weights",
        "op": "Const",
        "attr": {
          "value": {
            "tensor": {
              "dtype": "DT_FLOAT",
              "tensorShape": {
                "dim": [
                  { "size": "3" },
                  { "size": "3" },
                  { "size": "72" },
                  { "size": "1" }
                ]
              }
            }
          },
          "dtype": { "type": "DT_FLOAT" }
        }
      },
      {
        "name": "MobilenetV2/expanded_conv_3/expand/BatchNorm/FusedBatchNorm/Offset",
        "op": "Const",
        "attr": {
          "value": {
            "tensor": {
              "dtype": "DT_FLOAT",
              "tensorShape": { "dim": [{ "size": "72" }] }
            }
          },
          "dtype": { "type": "DT_FLOAT" }
        }
      },
      {
        "name": "MobilenetV2/expanded_conv_3/expand/Conv2D/merged_input",
        "op": "Const",
        "attr": {
          "value": {
            "tensor": {
              "dtype": "DT_FLOAT",
              "tensorShape": {
                "dim": [
                  { "size": "1" },
                  { "size": "1" },
                  { "size": "12" },
                  { "size": "72" }
                ]
              }
            }
          },
          "dtype": { "type": "DT_FLOAT" }
        }
      },
      {
        "name": "MobilenetV2/expanded_conv_1/project/BatchNorm/FusedBatchNorm/Offset",
        "op": "Const",
        "attr": {
          "value": {
            "tensor": {
              "dtype": "DT_FLOAT",
              "tensorShape": { "dim": [{ "size": "12" }] }
            }
          },
          "dtype": { "type": "DT_FLOAT" }
        }
      },
      {
        "name": "MobilenetV2/expanded_conv_1/project/Conv2D/merged_input",
        "op": "Const",
        "attr": {
          "value": {
            "tensor": {
              "dtype": "DT_FLOAT",
              "tensorShape": {
                "dim": [
                  { "size": "1" },
                  { "size": "1" },
                  { "size": "48" },
                  { "size": "12" }
                ]
              }
            }
          },
          "dtype": { "type": "DT_FLOAT" }
        }
      },
      {
        "name": "MobilenetV2/expanded_conv_1/depthwise/BatchNorm/FusedBatchNorm/Offset",
        "op": "Const",
        "attr": {
          "value": {
            "tensor": {
              "dtype": "DT_FLOAT",
              "tensorShape": { "dim": [{ "size": "48" }] }
            }
          },
          "dtype": { "type": "DT_FLOAT" }
        }
      },
      {
        "name": "MobilenetV2/expanded_conv_1/depthwise/BatchNorm/FusedBatchNorm/Scaled",
        "op": "Const",
        "attr": {
          "value": {
            "tensor": {
              "dtype": "DT_FLOAT",
              "tensorShape": { "dim": [{ "size": "48" }] }
            }
          },
          "dtype": { "type": "DT_FLOAT" }
        }
      },
      {
        "name": "MobilenetV2/expanded_conv_1/depthwise/depthwise_weights",
        "op": "Const",
        "attr": {
          "value": {
            "tensor": {
              "dtype": "DT_FLOAT",
              "tensorShape": {
                "dim": [
                  { "size": "3" },
                  { "size": "3" },
                  { "size": "48" },
                  { "size": "1" }
                ]
              }
            }
          },
          "dtype": { "type": "DT_FLOAT" }
        }
      },
      {
        "name": "MobilenetV2/expanded_conv_1/expand/BatchNorm/FusedBatchNorm/Offset",
        "op": "Const",
        "attr": {
          "value": {
            "tensor": {
              "dtype": "DT_FLOAT",
              "tensorShape": { "dim": [{ "size": "48" }] }
            }
          },
          "dtype": { "type": "DT_FLOAT" }
        }
      },
      {
        "name": "MobilenetV2/expanded_conv_1/expand/Conv2D/merged_input",
        "op": "Const",
        "attr": {
          "value": {
            "tensor": {
              "dtype": "DT_FLOAT",
              "tensorShape": {
                "dim": [
                  { "size": "1" },
                  { "size": "1" },
                  { "size": "8" },
                  { "size": "48" }
                ]
              }
            }
          },
          "dtype": { "type": "DT_FLOAT" }
        }
      },
      {
        "name": "MobilenetV2/expanded_conv/project/BatchNorm/FusedBatchNorm/Offset",
        "op": "Const",
        "attr": {
          "value": {
            "tensor": {
              "dtype": "DT_FLOAT",
              "tensorShape": { "dim": [{ "size": "8" }] }
            }
          },
          "dtype": { "type": "DT_FLOAT" }
        }
      },
      {
        "name": "MobilenetV2/expanded_conv/project/Conv2D/merged_input",
        "op": "Const",
        "attr": {
          "value": {
            "tensor": {
              "dtype": "DT_FLOAT",
              "tensorShape": {
                "dim": [
                  { "size": "1" },
                  { "size": "1" },
                  { "size": "16" },
                  { "size": "8" }
                ]
              }
            }
          },
          "dtype": { "type": "DT_FLOAT" }
        }
      },
      {
        "name": "MobilenetV2/expanded_conv/depthwise/BatchNorm/FusedBatchNorm/Offset",
        "op": "Const",
        "attr": {
          "value": {
            "tensor": {
              "dtype": "DT_FLOAT",
              "tensorShape": { "dim": [{ "size": "16" }] }
            }
          },
          "dtype": { "type": "DT_FLOAT" }
        }
      },
      {
        "name": "MobilenetV2/expanded_conv/depthwise/BatchNorm/FusedBatchNorm/Scaled",
        "op": "Const",
        "attr": {
          "value": {
            "tensor": {
              "dtype": "DT_FLOAT",
              "tensorShape": { "dim": [{ "size": "16" }] }
            }
          },
          "dtype": { "type": "DT_FLOAT" }
        }
      },
      {
        "name": "MobilenetV2/expanded_conv/depthwise/depthwise_weights",
        "op": "Const",
        "attr": {
          "value": {
            "tensor": {
              "dtype": "DT_FLOAT",
              "tensorShape": {
                "dim": [
                  { "size": "3" },
                  { "size": "3" },
                  { "size": "16" },
                  { "size": "1" }
                ]
              }
            }
          },
          "dtype": { "type": "DT_FLOAT" }
        }
      },
      {
        "name": "MobilenetV2/Conv/BatchNorm/FusedBatchNorm/Offset",
        "op": "Const",
        "attr": {
          "value": {
            "tensor": {
              "dtype": "DT_FLOAT",
              "tensorShape": { "dim": [{ "size": "16" }] }
            }
          },
          "dtype": { "type": "DT_FLOAT" }
        }
      },
      {
        "name": "MobilenetV2/Conv/Conv2D/merged_input",
        "op": "Const",
        "attr": {
          "value": {
            "tensor": {
              "dtype": "DT_FLOAT",
              "tensorShape": {
                "dim": [
                  { "size": "3" },
                  { "size": "3" },
                  { "size": "3" },
                  { "size": "16" }
                ]
              }
            }
          },
          "dtype": { "type": "DT_FLOAT" }
        }
      },
      {
        "name": "sub_7/y",
        "op": "Const",
        "attr": {
          "dtype": { "type": "DT_FLOAT" },
          "value": { "tensor": { "dtype": "DT_FLOAT", "tensorShape": {} } }
        }
      },
      {
        "name": "stack/0",
        "op": "Const",
        "attr": {
          "value": { "tensor": { "dtype": "DT_INT32", "tensorShape": {} } },
          "dtype": { "type": "DT_INT32" }
        }
      },
      {
        "name": "Reshape",
        "op": "Const",
        "attr": {
          "value": {
            "tensor": {
              "dtype": "DT_FLOAT",
              "tensorShape": {
                "dim": [{ "size": "1" }, { "size": "1" }, { "size": "3" }]
              }
            }
          },
          "dtype": { "type": "DT_FLOAT" }
        }
      },
      {
        "name": "stack_2",
        "op": "Const",
        "attr": {
          "value": {
            "tensor": {
              "dtype": "DT_INT32",
              "tensorShape": { "dim": [{ "size": "2" }] }
            }
          },
          "dtype": { "type": "DT_INT32" }
        }
      },
      {
        "name": "sub_1/x",
        "op": "Const",
        "attr": {
          "value": { "tensor": { "dtype": "DT_INT32", "tensorShape": {} } },
          "dtype": { "type": "DT_INT32" }
        }
      },
      {
        "name": "mul/x",
        "op": "Const",
        "attr": {
          "value": { "tensor": { "dtype": "DT_FLOAT", "tensorShape": {} } },
          "dtype": { "type": "DT_FLOAT" }
        }
      },
      {
        "name": "MobilenetV2/expanded_conv_2/project/Conv2D/merged_input",
        "op": "Const",
        "attr": {
          "value": {
            "tensor": {
              "dtype": "DT_FLOAT",
              "tensorShape": {
                "dim": [
                  { "size": "1" },
                  { "size": "1" },
                  { "size": "72" },
                  { "size": "12" }
                ]
              }
            }
          },
          "dtype": { "type": "DT_FLOAT" }
        }
      },
      {
        "name": "MobilenetV2/expanded_conv_2/depthwise/BatchNorm/FusedBatchNorm/Offset",
        "op": "Const",
        "attr": {
          "value": {
            "tensor": {
              "dtype": "DT_FLOAT",
              "tensorShape": { "dim": [{ "size": "72" }] }
            }
          },
          "dtype": { "type": "DT_FLOAT" }
        }
      },
      {
        "name": "MobilenetV2/expanded_conv_2/depthwise/BatchNorm/FusedBatchNorm/Scaled",
        "op": "Const",
        "attr": {
          "value": {
            "tensor": {
              "dtype": "DT_FLOAT",
              "tensorShape": { "dim": [{ "size": "72" }] }
            }
          },
          "dtype": { "type": "DT_FLOAT" }
        }
      },
      {
        "name": "MobilenetV2/expanded_conv_2/depthwise/depthwise_weights",
        "op": "Const",
        "attr": {
          "value": {
            "tensor": {
              "dtype": "DT_FLOAT",
              "tensorShape": {
                "dim": [
                  { "size": "3" },
                  { "size": "3" },
                  { "size": "72" },
                  { "size": "1" }
                ]
              }
            }
          },
          "dtype": { "type": "DT_FLOAT" }
        }
      },
      {
        "name": "MobilenetV2/expanded_conv_2/expand/BatchNorm/FusedBatchNorm/Offset",
        "op": "Const",
        "attr": {
          "value": {
            "tensor": {
              "dtype": "DT_FLOAT",
              "tensorShape": { "dim": [{ "size": "72" }] }
            }
          },
          "dtype": { "type": "DT_FLOAT" }
        }
      },
      {
        "name": "MobilenetV2/expanded_conv_2/expand/Conv2D/merged_input",
        "op": "Const",
        "attr": {
          "value": {
            "tensor": {
              "dtype": "DT_FLOAT",
              "tensorShape": {
                "dim": [
                  { "size": "1" },
                  { "size": "1" },
                  { "size": "12" },
                  { "size": "72" }
                ]
              }
            }
          },
          "dtype": { "type": "DT_FLOAT" }
        }
      },
      {
        "name": "MobilenetV2/expanded_conv_2/project/BatchNorm/FusedBatchNorm/Offset",
        "op": "Const",
        "attr": {
          "value": {
            "tensor": {
              "dtype": "DT_FLOAT",
              "tensorShape": { "dim": [{ "size": "12" }] }
            }
          },
          "dtype": { "type": "DT_FLOAT" }
        }
      },
      {
        "name": "MobilenetV2/expanded_conv_4/project/Conv2D/merged_input",
        "op": "Const",
        "attr": {
          "value": {
            "tensor": {
              "dtype": "DT_FLOAT",
              "tensorShape": {
                "dim": [
                  { "size": "1" },
                  { "size": "1" },
                  { "size": "96" },
                  { "size": "16" }
                ]
              }
            }
          },
          "dtype": { "type": "DT_FLOAT" }
        }
      },
      {
        "name": "MobilenetV2/expanded_conv_4/depthwise/BatchNorm/FusedBatchNorm/Offset",
        "op": "Const",
        "attr": {
          "value": {
            "tensor": {
              "dtype": "DT_FLOAT",
              "tensorShape": { "dim": [{ "size": "96" }] }
            }
          },
          "dtype": { "type": "DT_FLOAT" }
        }
      },
      {
        "name": "MobilenetV2/expanded_conv_4/depthwise/BatchNorm/FusedBatchNorm/Scaled",
        "op": "Const",
        "attr": {
          "value": {
            "tensor": {
              "dtype": "DT_FLOAT",
              "tensorShape": { "dim": [{ "size": "96" }] }
            }
          },
          "dtype": { "type": "DT_FLOAT" }
        }
      },
      {
        "name": "MobilenetV2/expanded_conv_4/depthwise/depthwise_weights",
        "op": "Const",
        "attr": {
          "value": {
            "tensor": {
              "dtype": "DT_FLOAT",
              "tensorShape": {
                "dim": [
                  { "size": "3" },
                  { "size": "3" },
                  { "size": "96" },
                  { "size": "1" }
                ]
              }
            }
          },
          "dtype": { "type": "DT_FLOAT" }
        }
      },
      {
        "name": "MobilenetV2/expanded_conv_4/expand/BatchNorm/FusedBatchNorm/Offset",
        "op": "Const",
        "attr": {
          "value": {
            "tensor": {
              "dtype": "DT_FLOAT",
              "tensorShape": { "dim": [{ "size": "96" }] }
            }
          },
          "dtype": { "type": "DT_FLOAT" }
        }
      },
      {
        "name": "MobilenetV2/expanded_conv_4/expand/Conv2D/merged_input",
        "op": "Const",
        "attr": {
          "value": {
            "tensor": {
              "dtype": "DT_FLOAT",
              "tensorShape": {
                "dim": [
                  { "size": "1" },
                  { "size": "1" },
                  { "size": "16" },
                  { "size": "96" }
                ]
              }
            }
          },
          "dtype": { "type": "DT_FLOAT" }
        }
      },
      {
        "name": "MobilenetV2/expanded_conv_4/project/BatchNorm/FusedBatchNorm/Offset",
        "op": "Const",
        "attr": {
          "value": {
            "tensor": {
              "dtype": "DT_FLOAT",
              "tensorShape": { "dim": [{ "size": "16" }] }
            }
          },
          "dtype": { "type": "DT_FLOAT" }
        }
      },
      {
        "name": "MobilenetV2/expanded_conv_5/project/Conv2D/merged_input",
        "op": "Const",
        "attr": {
          "value": {
            "tensor": {
              "dtype": "DT_FLOAT",
              "tensorShape": {
                "dim": [
                  { "size": "1" },
                  { "size": "1" },
                  { "size": "96" },
                  { "size": "16" }
                ]
              }
            }
          },
          "dtype": { "type": "DT_FLOAT" }
        }
      },
      {
        "name": "MobilenetV2/expanded_conv_5/depthwise/BatchNorm/FusedBatchNorm/Offset",
        "op": "Const",
        "attr": {
          "value": {
            "tensor": {
              "dtype": "DT_FLOAT",
              "tensorShape": { "dim": [{ "size": "96" }] }
            }
          },
          "dtype": { "type": "DT_FLOAT" }
        }
      },
      {
        "name": "MobilenetV2/expanded_conv_5/depthwise/BatchNorm/FusedBatchNorm/Scaled",
        "op": "Const",
        "attr": {
          "value": {
            "tensor": {
              "dtype": "DT_FLOAT",
              "tensorShape": { "dim": [{ "size": "96" }] }
            }
          },
          "dtype": { "type": "DT_FLOAT" }
        }
      },
      {
        "name": "MobilenetV2/expanded_conv_5/depthwise/depthwise_weights",
        "op": "Const",
        "attr": {
          "dtype": { "type": "DT_FLOAT" },
          "value": {
            "tensor": {
              "dtype": "DT_FLOAT",
              "tensorShape": {
                "dim": [
                  { "size": "3" },
                  { "size": "3" },
                  { "size": "96" },
                  { "size": "1" }
                ]
              }
            }
          }
        }
      },
      {
        "name": "MobilenetV2/expanded_conv_5/expand/BatchNorm/FusedBatchNorm/Offset",
        "op": "Const",
        "attr": {
          "value": {
            "tensor": {
              "dtype": "DT_FLOAT",
              "tensorShape": { "dim": [{ "size": "96" }] }
            }
          },
          "dtype": { "type": "DT_FLOAT" }
        }
      },
      {
        "name": "MobilenetV2/expanded_conv_5/expand/Conv2D/merged_input",
        "op": "Const",
        "attr": {
          "value": {
            "tensor": {
              "dtype": "DT_FLOAT",
              "tensorShape": {
                "dim": [
                  { "size": "1" },
                  { "size": "1" },
                  { "size": "16" },
                  { "size": "96" }
                ]
              }
            }
          },
          "dtype": { "type": "DT_FLOAT" }
        }
      },
      {
        "name": "MobilenetV2/expanded_conv_5/project/BatchNorm/FusedBatchNorm/Offset",
        "op": "Const",
        "attr": {
          "value": {
            "tensor": {
              "dtype": "DT_FLOAT",
              "tensorShape": { "dim": [{ "size": "16" }] }
            }
          },
          "dtype": { "type": "DT_FLOAT" }
        }
      },
      {
        "name": "MobilenetV2/expanded_conv_7/project/BatchNorm/FusedBatchNorm/Offset",
        "op": "Const",
        "attr": {
          "dtype": { "type": "DT_FLOAT" },
          "value": {
            "tensor": {
              "dtype": "DT_FLOAT",
              "tensorShape": { "dim": [{ "size": "32" }] }
            }
          }
        }
      },
      {
        "name": "MobilenetV2/expanded_conv_7/project/Conv2D/merged_input",
        "op": "Const",
        "attr": {
          "dtype": { "type": "DT_FLOAT" },
          "value": {
            "tensor": {
              "dtype": "DT_FLOAT",
              "tensorShape": {
                "dim": [
                  { "size": "1" },
                  { "size": "1" },
                  { "size": "192" },
                  { "size": "32" }
                ]
              }
            }
          }
        }
      },
      {
        "name": "MobilenetV2/expanded_conv_7/depthwise/BatchNorm/FusedBatchNorm/Offset",
        "op": "Const",
        "attr": {
          "value": {
            "tensor": {
              "dtype": "DT_FLOAT",
              "tensorShape": { "dim": [{ "size": "192" }] }
            }
          },
          "dtype": { "type": "DT_FLOAT" }
        }
      },
      {
        "name": "MobilenetV2/expanded_conv_7/depthwise/BatchNorm/FusedBatchNorm/Scaled",
        "op": "Const",
        "attr": {
          "dtype": { "type": "DT_FLOAT" },
          "value": {
            "tensor": {
              "dtype": "DT_FLOAT",
              "tensorShape": { "dim": [{ "size": "192" }] }
            }
          }
        }
      },
      {
        "name": "MobilenetV2/expanded_conv_7/depthwise/depthwise_weights",
        "op": "Const",
        "attr": {
          "value": {
            "tensor": {
              "dtype": "DT_FLOAT",
              "tensorShape": {
                "dim": [
                  { "size": "3" },
                  { "size": "3" },
                  { "size": "192" },
                  { "size": "1" }
                ]
              }
            }
          },
          "dtype": { "type": "DT_FLOAT" }
        }
      },
      {
        "name": "MobilenetV2/expanded_conv_7/expand/BatchNorm/FusedBatchNorm/Offset",
        "op": "Const",
        "attr": {
          "value": {
            "tensor": {
              "dtype": "DT_FLOAT",
              "tensorShape": { "dim": [{ "size": "192" }] }
            }
          },
          "dtype": { "type": "DT_FLOAT" }
        }
      },
      {
        "name": "MobilenetV2/expanded_conv_7/expand/Conv2D/merged_input",
        "op": "Const",
        "attr": {
          "value": {
            "tensor": {
              "dtype": "DT_FLOAT",
              "tensorShape": {
                "dim": [
                  { "size": "1" },
                  { "size": "1" },
                  { "size": "32" },
                  { "size": "192" }
                ]
              }
            }
          },
          "dtype": { "type": "DT_FLOAT" }
        }
      },
      {
        "name": "MobilenetV2/expanded_conv_8/project/BatchNorm/FusedBatchNorm/Offset",
        "op": "Const",
        "attr": {
          "value": {
            "tensor": {
              "dtype": "DT_FLOAT",
              "tensorShape": { "dim": [{ "size": "32" }] }
            }
          },
          "dtype": { "type": "DT_FLOAT" }
        }
      },
      {
        "name": "MobilenetV2/expanded_conv_8/project/Conv2D/merged_input",
        "op": "Const",
        "attr": {
          "value": {
            "tensor": {
              "dtype": "DT_FLOAT",
              "tensorShape": {
                "dim": [
                  { "size": "1" },
                  { "size": "1" },
                  { "size": "192" },
                  { "size": "32" }
                ]
              }
            }
          },
          "dtype": { "type": "DT_FLOAT" }
        }
      },
      {
        "name": "MobilenetV2/expanded_conv_8/depthwise/BatchNorm/FusedBatchNorm/Offset",
        "op": "Const",
        "attr": {
          "value": {
            "tensor": {
              "dtype": "DT_FLOAT",
              "tensorShape": { "dim": [{ "size": "192" }] }
            }
          },
          "dtype": { "type": "DT_FLOAT" }
        }
      },
      {
        "name": "MobilenetV2/expanded_conv_8/depthwise/BatchNorm/FusedBatchNorm/Scaled",
        "op": "Const",
        "attr": {
          "value": {
            "tensor": {
              "dtype": "DT_FLOAT",
              "tensorShape": { "dim": [{ "size": "192" }] }
            }
          },
          "dtype": { "type": "DT_FLOAT" }
        }
      },
      {
        "name": "MobilenetV2/expanded_conv_8/depthwise/depthwise_weights",
        "op": "Const",
        "attr": {
          "value": {
            "tensor": {
              "dtype": "DT_FLOAT",
              "tensorShape": {
                "dim": [
                  { "size": "3" },
                  { "size": "3" },
                  { "size": "192" },
                  { "size": "1" }
                ]
              }
            }
          },
          "dtype": { "type": "DT_FLOAT" }
        }
      },
      {
        "name": "MobilenetV2/expanded_conv_8/expand/BatchNorm/FusedBatchNorm/Offset",
        "op": "Const",
        "attr": {
          "dtype": { "type": "DT_FLOAT" },
          "value": {
            "tensor": {
              "dtype": "DT_FLOAT",
              "tensorShape": { "dim": [{ "size": "192" }] }
            }
          }
        }
      },
      {
        "name": "MobilenetV2/expanded_conv_8/expand/Conv2D/merged_input",
        "op": "Const",
        "attr": {
          "value": {
            "tensor": {
              "dtype": "DT_FLOAT",
              "tensorShape": {
                "dim": [
                  { "size": "1" },
                  { "size": "1" },
                  { "size": "32" },
                  { "size": "192" }
                ]
              }
            }
          },
          "dtype": { "type": "DT_FLOAT" }
        }
      },
      {
        "name": "MobilenetV2/expanded_conv_9/project/BatchNorm/FusedBatchNorm/Offset",
        "op": "Const",
        "attr": {
          "value": {
            "tensor": {
              "dtype": "DT_FLOAT",
              "tensorShape": { "dim": [{ "size": "32" }] }
            }
          },
          "dtype": { "type": "DT_FLOAT" }
        }
      },
      {
        "name": "MobilenetV2/expanded_conv_9/project/Conv2D/merged_input",
        "op": "Const",
        "attr": {
          "dtype": { "type": "DT_FLOAT" },
          "value": {
            "tensor": {
              "dtype": "DT_FLOAT",
              "tensorShape": {
                "dim": [
                  { "size": "1" },
                  { "size": "1" },
                  { "size": "192" },
                  { "size": "32" }
                ]
              }
            }
          }
        }
      },
      {
        "name": "MobilenetV2/expanded_conv_9/depthwise/BatchNorm/FusedBatchNorm/Offset",
        "op": "Const",
        "attr": {
          "dtype": { "type": "DT_FLOAT" },
          "value": {
            "tensor": {
              "dtype": "DT_FLOAT",
              "tensorShape": { "dim": [{ "size": "192" }] }
            }
          }
        }
      },
      {
        "name": "MobilenetV2/expanded_conv_9/depthwise/BatchNorm/FusedBatchNorm/Scaled",
        "op": "Const",
        "attr": {
          "value": {
            "tensor": {
              "dtype": "DT_FLOAT",
              "tensorShape": { "dim": [{ "size": "192" }] }
            }
          },
          "dtype": { "type": "DT_FLOAT" }
        }
      },
      {
        "name": "MobilenetV2/expanded_conv_9/depthwise/depthwise_weights",
        "op": "Const",
        "attr": {
          "value": {
            "tensor": {
              "dtype": "DT_FLOAT",
              "tensorShape": {
                "dim": [
                  { "size": "3" },
                  { "size": "3" },
                  { "size": "192" },
                  { "size": "1" }
                ]
              }
            }
          },
          "dtype": { "type": "DT_FLOAT" }
        }
      },
      {
        "name": "MobilenetV2/expanded_conv_9/expand/BatchNorm/FusedBatchNorm/Offset",
        "op": "Const",
        "attr": {
          "value": {
            "tensor": {
              "dtype": "DT_FLOAT",
              "tensorShape": { "dim": [{ "size": "192" }] }
            }
          },
          "dtype": { "type": "DT_FLOAT" }
        }
      },
      {
        "name": "MobilenetV2/expanded_conv_9/expand/Conv2D/merged_input",
        "op": "Const",
        "attr": {
          "value": {
            "tensor": {
              "dtype": "DT_FLOAT",
              "tensorShape": {
                "dim": [
                  { "size": "1" },
                  { "size": "1" },
                  { "size": "32" },
                  { "size": "192" }
                ]
              }
            }
          },
          "dtype": { "type": "DT_FLOAT" }
        }
      },
      {
        "name": "MobilenetV2/expanded_conv_11/project/BatchNorm/FusedBatchNorm/Offset",
        "op": "Const",
        "attr": {
          "value": {
            "tensor": {
              "dtype": "DT_FLOAT",
              "tensorShape": { "dim": [{ "size": "48" }] }
            }
          },
          "dtype": { "type": "DT_FLOAT" }
        }
      },
      {
        "name": "MobilenetV2/expanded_conv_11/project/Conv2D/merged_input",
        "op": "Const",
        "attr": {
          "value": {
            "tensor": {
              "dtype": "DT_FLOAT",
              "tensorShape": {
                "dim": [
                  { "size": "1" },
                  { "size": "1" },
                  { "size": "288" },
                  { "size": "48" }
                ]
              }
            }
          },
          "dtype": { "type": "DT_FLOAT" }
        }
      },
      {
        "name": "MobilenetV2/expanded_conv_11/depthwise/BatchNorm/FusedBatchNorm/Offset",
        "op": "Const",
        "attr": {
          "value": {
            "tensor": {
              "dtype": "DT_FLOAT",
              "tensorShape": { "dim": [{ "size": "288" }] }
            }
          },
          "dtype": { "type": "DT_FLOAT" }
        }
      },
      {
        "name": "MobilenetV2/expanded_conv_11/depthwise/BatchNorm/FusedBatchNorm/Scaled",
        "op": "Const",
        "attr": {
          "value": {
            "tensor": {
              "dtype": "DT_FLOAT",
              "tensorShape": { "dim": [{ "size": "288" }] }
            }
          },
          "dtype": { "type": "DT_FLOAT" }
        }
      },
      {
        "name": "MobilenetV2/expanded_conv_11/depthwise/depthwise_weights",
        "op": "Const",
        "attr": {
          "value": {
            "tensor": {
              "dtype": "DT_FLOAT",
              "tensorShape": {
                "dim": [
                  { "size": "3" },
                  { "size": "3" },
                  { "size": "288" },
                  { "size": "1" }
                ]
              }
            }
          },
          "dtype": { "type": "DT_FLOAT" }
        }
      },
      {
        "name": "MobilenetV2/expanded_conv_11/expand/BatchNorm/FusedBatchNorm/Offset",
        "op": "Const",
        "attr": {
          "value": {
            "tensor": {
              "dtype": "DT_FLOAT",
              "tensorShape": { "dim": [{ "size": "288" }] }
            }
          },
          "dtype": { "type": "DT_FLOAT" }
        }
      },
      {
        "name": "MobilenetV2/expanded_conv_11/expand/Conv2D/merged_input",
        "op": "Const",
        "attr": {
          "value": {
            "tensor": {
              "dtype": "DT_FLOAT",
              "tensorShape": {
                "dim": [
                  { "size": "1" },
                  { "size": "1" },
                  { "size": "48" },
                  { "size": "288" }
                ]
              }
            }
          },
          "dtype": { "type": "DT_FLOAT" }
        }
      },
      {
        "name": "MobilenetV2/expanded_conv_12/project/BatchNorm/FusedBatchNorm/Offset",
        "op": "Const",
        "attr": {
          "value": {
            "tensor": {
              "dtype": "DT_FLOAT",
              "tensorShape": { "dim": [{ "size": "48" }] }
            }
          },
          "dtype": { "type": "DT_FLOAT" }
        }
      },
      {
        "name": "MobilenetV2/expanded_conv_12/project/Conv2D/merged_input",
        "op": "Const",
        "attr": {
          "dtype": { "type": "DT_FLOAT" },
          "value": {
            "tensor": {
              "dtype": "DT_FLOAT",
              "tensorShape": {
                "dim": [
                  { "size": "1" },
                  { "size": "1" },
                  { "size": "288" },
                  { "size": "48" }
                ]
              }
            }
          }
        }
      },
      {
        "name": "MobilenetV2/expanded_conv_12/depthwise/BatchNorm/FusedBatchNorm/Offset",
        "op": "Const",
        "attr": {
          "value": {
            "tensor": {
              "dtype": "DT_FLOAT",
              "tensorShape": { "dim": [{ "size": "288" }] }
            }
          },
          "dtype": { "type": "DT_FLOAT" }
        }
      },
      {
        "name": "MobilenetV2/expanded_conv_12/depthwise/BatchNorm/FusedBatchNorm/Scaled",
        "op": "Const",
        "attr": {
          "value": {
            "tensor": {
              "dtype": "DT_FLOAT",
              "tensorShape": { "dim": [{ "size": "288" }] }
            }
          },
          "dtype": { "type": "DT_FLOAT" }
        }
      },
      {
        "name": "MobilenetV2/expanded_conv_12/depthwise/depthwise_weights",
        "op": "Const",
        "attr": {
          "dtype": { "type": "DT_FLOAT" },
          "value": {
            "tensor": {
              "dtype": "DT_FLOAT",
              "tensorShape": {
                "dim": [
                  { "size": "3" },
                  { "size": "3" },
                  { "size": "288" },
                  { "size": "1" }
                ]
              }
            }
          }
        }
      },
      {
        "name": "MobilenetV2/expanded_conv_12/expand/BatchNorm/FusedBatchNorm/Offset",
        "op": "Const",
        "attr": {
          "value": {
            "tensor": {
              "dtype": "DT_FLOAT",
              "tensorShape": { "dim": [{ "size": "288" }] }
            }
          },
          "dtype": { "type": "DT_FLOAT" }
        }
      },
      {
        "name": "MobilenetV2/expanded_conv_12/expand/Conv2D/merged_input",
        "op": "Const",
        "attr": {
          "value": {
            "tensor": {
              "dtype": "DT_FLOAT",
              "tensorShape": {
                "dim": [
                  { "size": "1" },
                  { "size": "1" },
                  { "size": "48" },
                  { "size": "288" }
                ]
              }
            }
          },
          "dtype": { "type": "DT_FLOAT" }
        }
      },
      {
        "name": "MobilenetV2/expanded_conv_14/project/BatchNorm/FusedBatchNorm/Offset",
        "op": "Const",
        "attr": {
          "value": {
            "tensor": {
              "dtype": "DT_FLOAT",
              "tensorShape": { "dim": [{ "size": "80" }] }
            }
          },
          "dtype": { "type": "DT_FLOAT" }
        }
      },
      {
        "name": "MobilenetV2/expanded_conv_14/project/Conv2D/merged_input",
        "op": "Const",
        "attr": {
          "value": {
            "tensor": {
              "dtype": "DT_FLOAT",
              "tensorShape": {
                "dim": [
                  { "size": "1" },
                  { "size": "1" },
                  { "size": "480" },
                  { "size": "80" }
                ]
              }
            }
          },
          "dtype": { "type": "DT_FLOAT" }
        }
      },
      {
        "name": "MobilenetV2/expanded_conv_14/depthwise/BatchNorm/FusedBatchNorm/Offset",
        "op": "Const",
        "attr": {
          "value": {
            "tensor": {
              "dtype": "DT_FLOAT",
              "tensorShape": { "dim": [{ "size": "480" }] }
            }
          },
          "dtype": { "type": "DT_FLOAT" }
        }
      },
      {
        "name": "MobilenetV2/expanded_conv_14/depthwise/BatchNorm/FusedBatchNorm/Scaled",
        "op": "Const",
        "attr": {
          "value": {
            "tensor": {
              "dtype": "DT_FLOAT",
              "tensorShape": { "dim": [{ "size": "480" }] }
            }
          },
          "dtype": { "type": "DT_FLOAT" }
        }
      },
      {
        "name": "MobilenetV2/expanded_conv_14/depthwise/depthwise_weights",
        "op": "Const",
        "attr": {
          "value": {
            "tensor": {
              "dtype": "DT_FLOAT",
              "tensorShape": {
                "dim": [
                  { "size": "3" },
                  { "size": "3" },
                  { "size": "480" },
                  { "size": "1" }
                ]
              }
            }
          },
          "dtype": { "type": "DT_FLOAT" }
        }
      },
      {
        "name": "MobilenetV2/expanded_conv_14/expand/BatchNorm/FusedBatchNorm/Offset",
        "op": "Const",
        "attr": {
          "dtype": { "type": "DT_FLOAT" },
          "value": {
            "tensor": {
              "dtype": "DT_FLOAT",
              "tensorShape": { "dim": [{ "size": "480" }] }
            }
          }
        }
      },
      {
        "name": "MobilenetV2/expanded_conv_14/expand/Conv2D/merged_input",
        "op": "Const",
        "attr": {
          "dtype": { "type": "DT_FLOAT" },
          "value": {
            "tensor": {
              "dtype": "DT_FLOAT",
              "tensorShape": {
                "dim": [
                  { "size": "1" },
                  { "size": "1" },
                  { "size": "80" },
                  { "size": "480" }
                ]
              }
            }
          }
        }
      },
      {
        "name": "MobilenetV2/expanded_conv_15/project/BatchNorm/FusedBatchNorm/Offset",
        "op": "Const",
        "attr": {
          "value": {
            "tensor": {
              "dtype": "DT_FLOAT",
              "tensorShape": { "dim": [{ "size": "80" }] }
            }
          },
          "dtype": { "type": "DT_FLOAT" }
        }
      },
      {
        "name": "MobilenetV2/expanded_conv_15/project/Conv2D/merged_input",
        "op": "Const",
        "attr": {
          "value": {
            "tensor": {
              "dtype": "DT_FLOAT",
              "tensorShape": {
                "dim": [
                  { "size": "1" },
                  { "size": "1" },
                  { "size": "480" },
                  { "size": "80" }
                ]
              }
            }
          },
          "dtype": { "type": "DT_FLOAT" }
        }
      },
      {
        "name": "MobilenetV2/expanded_conv_15/depthwise/BatchNorm/FusedBatchNorm/Offset",
        "op": "Const",
        "attr": {
          "value": {
            "tensor": {
              "dtype": "DT_FLOAT",
              "tensorShape": { "dim": [{ "size": "480" }] }
            }
          },
          "dtype": { "type": "DT_FLOAT" }
        }
      },
      {
        "name": "MobilenetV2/expanded_conv_15/depthwise/BatchNorm/FusedBatchNorm/Scaled",
        "op": "Const",
        "attr": {
          "value": {
            "tensor": {
              "dtype": "DT_FLOAT",
              "tensorShape": { "dim": [{ "size": "480" }] }
            }
          },
          "dtype": { "type": "DT_FLOAT" }
        }
      },
      {
        "name": "MobilenetV2/expanded_conv_15/depthwise/depthwise_weights",
        "op": "Const",
        "attr": {
          "value": {
            "tensor": {
              "dtype": "DT_FLOAT",
              "tensorShape": {
                "dim": [
                  { "size": "3" },
                  { "size": "3" },
                  { "size": "480" },
                  { "size": "1" }
                ]
              }
            }
          },
          "dtype": { "type": "DT_FLOAT" }
        }
      },
      {
        "name": "MobilenetV2/expanded_conv_15/expand/BatchNorm/FusedBatchNorm/Offset",
        "op": "Const",
        "attr": {
          "value": {
            "tensor": {
              "dtype": "DT_FLOAT",
              "tensorShape": { "dim": [{ "size": "480" }] }
            }
          },
          "dtype": { "type": "DT_FLOAT" }
        }
      },
      {
        "name": "MobilenetV2/expanded_conv_15/expand/Conv2D/merged_input",
        "op": "Const",
        "attr": {
          "value": {
            "tensor": {
              "dtype": "DT_FLOAT",
              "tensorShape": {
                "dim": [
                  { "size": "1" },
                  { "size": "1" },
                  { "size": "80" },
                  { "size": "480" }
                ]
              }
            }
          },
          "dtype": { "type": "DT_FLOAT" }
        }
      },
      {
        "name": "image_pooling/BatchNorm/FusedBatchNorm/Offset",
        "op": "Const",
        "attr": {
          "value": {
            "tensor": {
              "dtype": "DT_FLOAT",
              "tensorShape": { "dim": [{ "size": "256" }] }
            }
          },
          "dtype": { "type": "DT_FLOAT" }
        }
      },
      {
        "name": "image_pooling/Conv2D/merged_input",
        "op": "Const",
        "attr": {
          "value": {
            "tensor": {
              "dtype": "DT_FLOAT",
              "tensorShape": {
                "dim": [
                  { "size": "1" },
                  { "size": "1" },
                  { "size": "160" },
                  { "size": "256" }
                ]
              }
            }
          },
          "dtype": { "type": "DT_FLOAT" }
        }
      },
      {
        "name": "Shape",
        "op": "Shape",
        "input": ["ImageTensor"],
        "attr": {
          "T": { "type": "DT_UINT8" },
          "out_type": { "type": "DT_INT32" }
        }
      },
      {
        "name": "Squeeze",
        "op": "Squeeze",
        "input": ["ImageTensor"],
        "attr": {
          "squeeze_dims": { "list": { "i": ["0"] } },
          "T": { "type": "DT_UINT8" }
        }
      },
      {
        "name": "strided_slice",
        "op": "StridedSlice",
        "input": [
          "Shape",
          "strided_slice_2/stack",
          "strided_slice/stack_1",
          "strided_slice_2/stack"
        ],
        "attr": {
          "shrink_axis_mask": { "i": "0" },
          "ellipsis_mask": { "i": "0" },
          "begin_mask": { "i": "0" },
          "new_axis_mask": { "i": "0" },
          "end_mask": { "i": "0" },
          "T": { "type": "DT_INT32" },
          "Index": { "type": "DT_INT32" }
        }
      },
      {
        "name": "Shape_3",
        "op": "Shape",
        "input": ["Squeeze"],
        "attr": {
          "T": { "type": "DT_UINT8" },
          "out_type": { "type": "DT_INT32" }
        }
      },
      {
        "name": "Cast",
        "op": "Cast",
        "input": ["Squeeze"],
        "attr": {
          "SrcT": { "type": "DT_UINT8" },
          "Truncate": { "b": false },
          "DstT": { "type": "DT_FLOAT" }
        }
      },
      {
        "name": "strided_slice_5",
        "op": "StridedSlice",
        "input": [
          "Shape_3",
          "strided_slice_1/stack",
          "strided_slice_2/stack_1",
          "strided_slice_2/stack"
        ],
        "attr": {
          "begin_mask": { "i": "1" },
          "ellipsis_mask": { "i": "0" },
          "new_axis_mask": { "i": "0" },
          "end_mask": { "i": "0" },
          "T": { "type": "DT_INT32" },
          "Index": { "type": "DT_INT32" },
          "shrink_axis_mask": { "i": "0" }
        }
      },
      {
        "name": "sub_2",
        "op": "Sub",
        "input": ["Cast", "Reshape"],
        "attr": { "T": { "type": "DT_FLOAT" } }
      },
      {
        "name": "Shape_1",
        "op": "Shape",
        "input": ["Cast"],
        "attr": {
          "out_type": { "type": "DT_INT32" },
          "T": { "type": "DT_FLOAT" }
        }
      },
      {
        "name": "strided_slice_8",
        "op": "StridedSlice",
        "input": [
          "strided_slice_5",
          "strided_slice_2/stack",
          "strided_slice_2/stack_1",
          "strided_slice_2/stack"
        ],
        "attr": {
          "new_axis_mask": { "i": "0" },
          "end_mask": { "i": "0" },
          "T": { "type": "DT_INT32" },
          "Index": { "type": "DT_INT32" },
          "shrink_axis_mask": { "i": "1" },
          "begin_mask": { "i": "0" },
          "ellipsis_mask": { "i": "0" }
        }
      },
      {
        "name": "strided_slice_7",
        "op": "StridedSlice",
        "input": [
          "strided_slice_5",
          "strided_slice_1/stack",
          "strided_slice_2/stack",
          "strided_slice_2/stack"
        ],
        "attr": {
          "shrink_axis_mask": { "i": "1" },
          "ellipsis_mask": { "i": "0" },
          "begin_mask": { "i": "0" },
          "new_axis_mask": { "i": "0" },
          "end_mask": { "i": "0" },
          "Index": { "type": "DT_INT32" },
          "T": { "type": "DT_INT32" }
        }
      },
      {
        "name": "Shape_2",
        "op": "Shape",
        "input": ["sub_2"],
        "attr": {
          "T": { "type": "DT_FLOAT" },
          "out_type": { "type": "DT_INT32" }
        }
      },
      {
        "name": "strided_slice_2",
        "op": "StridedSlice",
        "input": [
          "Shape_1",
          "strided_slice_2/stack",
          "strided_slice_2/stack_1",
          "strided_slice_2/stack"
        ],
        "attr": {
          "Index": { "type": "DT_INT32" },
          "T": { "type": "DT_INT32" },
          "shrink_axis_mask": { "i": "1" },
          "ellipsis_mask": { "i": "0" },
          "begin_mask": { "i": "0" },
          "new_axis_mask": { "i": "0" },
          "end_mask": { "i": "0" }
        }
      },
      {
        "name": "strided_slice_1",
        "op": "StridedSlice",
        "input": [
          "Shape_1",
          "strided_slice_1/stack",
          "strided_slice_2/stack",
          "strided_slice_2/stack"
        ],
        "attr": {
          "Index": { "type": "DT_INT32" },
          "T": { "type": "DT_INT32" },
          "shrink_axis_mask": { "i": "1" },
          "ellipsis_mask": { "i": "0" },
          "begin_mask": { "i": "0" },
          "new_axis_mask": { "i": "0" },
          "end_mask": { "i": "0" }
        }
      },
      {
        "name": "Slice/size",
        "op": "Pack",
        "input": ["Slice/size/0", "strided_slice_7", "strided_slice_8"],
        "attr": {
          "T": { "type": "DT_INT32" },
          "axis": { "i": "0" },
          "N": { "i": "3" }
        }
      },
      {
        "name": "strided_slice_4",
        "op": "StridedSlice",
        "input": [
          "Shape_2",
          "strided_slice_2/stack",
          "strided_slice_2/stack_1",
          "strided_slice_2/stack"
        ],
        "attr": {
          "Index": { "type": "DT_INT32" },
          "T": { "type": "DT_INT32" },
          "shrink_axis_mask": { "i": "1" },
          "ellipsis_mask": { "i": "0" },
          "begin_mask": { "i": "0" },
          "new_axis_mask": { "i": "0" },
          "end_mask": { "i": "0" }
        }
      },
      {
        "name": "strided_slice_3",
        "op": "StridedSlice",
        "input": [
          "Shape_2",
          "strided_slice_1/stack",
          "strided_slice_2/stack",
          "strided_slice_2/stack"
        ],
        "attr": {
          "T": { "type": "DT_INT32" },
          "Index": { "type": "DT_INT32" },
          "shrink_axis_mask": { "i": "1" },
          "ellipsis_mask": { "i": "0" },
          "begin_mask": { "i": "0" },
          "new_axis_mask": { "i": "0" },
          "end_mask": { "i": "0" }
        }
      },
      {
        "name": "sub_1",
        "op": "Sub",
        "input": ["sub_1/x", "strided_slice_2"],
        "attr": { "T": { "type": "DT_INT32" } }
      },
      {
        "name": "sub",
        "op": "Sub",
        "input": ["sub_1/x", "strided_slice_1"],
        "attr": { "T": { "type": "DT_INT32" } }
      },
      {
        "name": "Maximum_1",
        "op": "Maximum",
        "input": ["sub_1", "stack/0"],
        "attr": { "T": { "type": "DT_INT32" } }
      },
      {
        "name": "Maximum",
        "op": "Maximum",
        "input": ["sub", "stack/0"],
        "attr": { "T": { "type": "DT_INT32" } }
      },
      {
        "name": "add_1",
        "op": "Add",
        "input": ["strided_slice_2", "Maximum_1"],
        "attr": { "T": { "type": "DT_INT32" } }
      },
      {
        "name": "add",
        "op": "Add",
        "input": ["strided_slice_1", "Maximum"],
        "attr": { "T": { "type": "DT_INT32" } }
      },
      {
        "name": "sub_4",
        "op": "Sub",
        "input": ["add_1", "strided_slice_4"],
        "attr": { "T": { "type": "DT_INT32" } }
      },
      {
        "name": "sub_6",
        "op": "Sub",
        "input": ["add", "strided_slice_3"],
        "attr": { "T": { "type": "DT_INT32" } }
      },
      {
        "name": "stack_1",
        "op": "Pack",
        "input": ["stack/0", "sub_4"],
        "attr": {
          "axis": { "i": "0" },
          "N": { "i": "2" },
          "T": { "type": "DT_INT32" }
        }
      },
      {
        "name": "stack",
        "op": "Pack",
        "input": ["stack/0", "sub_6"],
        "attr": {
          "axis": { "i": "0" },
          "N": { "i": "2" },
          "T": { "type": "DT_INT32" }
        }
      },
      {
        "name": "stack_3",
        "op": "Pack",
        "input": ["stack", "stack_1", "stack_2"],
        "attr": {
          "axis": { "i": "0" },
          "N": { "i": "3" },
          "T": { "type": "DT_INT32" }
        }
      },
      {
        "name": "Pad",
        "op": "Pad",
        "input": ["sub_2", "stack_3"],
        "attr": {
          "Tpaddings": { "type": "DT_INT32" },
          "T": { "type": "DT_FLOAT" }
        }
      },
      {
        "name": "add_2",
        "op": "Add",
        "input": ["Pad", "Reshape"],
        "attr": { "T": { "type": "DT_FLOAT" } }
      },
      {
        "name": "ExpandDims",
        "op": "ExpandDims",
        "input": ["add_2", "stack/0"],
        "attr": { "Tdim": { "type": "DT_INT32" }, "T": { "type": "DT_FLOAT" } }
      },
      {
        "name": "mul",
        "op": "Mul",
        "input": ["mul/x", "ExpandDims"],
        "attr": { "T": { "type": "DT_FLOAT" } }
      },
      {
        "name": "sub_7",
        "op": "Sub",
        "input": ["mul", "sub_7/y"],
        "attr": { "T": { "type": "DT_FLOAT" } }
      },
      {
        "name": "MobilenetV2/Conv/BatchNorm/FusedBatchNorm/Mul",
        "op": "Conv2D",
        "input": ["sub_7", "MobilenetV2/Conv/Conv2D/merged_input"],
        "attr": {
          "padding": { "s": "U0FNRQ==" },
          "dilations": { "list": { "i": ["1", "1", "1", "1"] } },
          "T": { "type": "DT_FLOAT" },
          "strides": { "list": { "i": ["1", "2", "2", "1"] } },
          "data_format": { "s": "TkhXQw==" },
          "use_cudnn_on_gpu": { "b": true }
        }
      },
      {
        "name": "MobilenetV2/Conv/BatchNorm/FusedBatchNorm",
        "op": "Add",
        "input": [
          "MobilenetV2/Conv/BatchNorm/FusedBatchNorm/Mul",
          "MobilenetV2/Conv/BatchNorm/FusedBatchNorm/Offset"
        ],
        "attr": { "T": { "type": "DT_FLOAT" } }
      },
      {
        "name": "MobilenetV2/Conv/Relu6",
        "op": "Relu6",
        "input": ["MobilenetV2/Conv/BatchNorm/FusedBatchNorm"],
        "attr": { "T": { "type": "DT_FLOAT" } }
      },
      {
        "name": "MobilenetV2/expanded_conv/depthwise/depthwise",
        "op": "DepthwiseConv2dNative",
        "input": [
          "MobilenetV2/Conv/Relu6",
          "MobilenetV2/expanded_conv/depthwise/depthwise_weights"
        ],
        "attr": {
          "T": { "type": "DT_FLOAT" },
          "data_format": { "s": "TkhXQw==" },
          "strides": { "list": { "i": ["1", "1", "1", "1"] } },
          "dilations": { "list": { "i": ["1", "1", "1", "1"] } },
          "padding": { "s": "U0FNRQ==" }
        }
      },
      {
        "name": "MobilenetV2/expanded_conv/depthwise/BatchNorm/FusedBatchNorm/Mul",
        "op": "Mul",
        "input": [
          "MobilenetV2/expanded_conv/depthwise/depthwise",
          "MobilenetV2/expanded_conv/depthwise/BatchNorm/FusedBatchNorm/Scaled"
        ],
        "attr": { "T": { "type": "DT_FLOAT" } }
      },
      {
        "name": "MobilenetV2/expanded_conv/depthwise/BatchNorm/FusedBatchNorm",
        "op": "Add",
        "input": [
          "MobilenetV2/expanded_conv/depthwise/BatchNorm/FusedBatchNorm/Mul",
          "MobilenetV2/expanded_conv/depthwise/BatchNorm/FusedBatchNorm/Offset"
        ],
        "attr": { "T": { "type": "DT_FLOAT" } }
      },
      {
        "name": "MobilenetV2/expanded_conv/depthwise/Relu6",
        "op": "Relu6",
        "input": [
          "MobilenetV2/expanded_conv/depthwise/BatchNorm/FusedBatchNorm"
        ],
        "attr": { "T": { "type": "DT_FLOAT" } }
      },
      {
        "name": "MobilenetV2/expanded_conv/project/BatchNorm/FusedBatchNorm/Mul",
        "op": "Conv2D",
        "input": [
          "MobilenetV2/expanded_conv/depthwise/Relu6",
          "MobilenetV2/expanded_conv/project/Conv2D/merged_input"
        ],
        "attr": {
          "dilations": { "list": { "i": ["1", "1", "1", "1"] } },
          "T": { "type": "DT_FLOAT" },
          "data_format": { "s": "TkhXQw==" },
          "strides": { "list": { "i": ["1", "1", "1", "1"] } },
          "use_cudnn_on_gpu": { "b": true },
          "padding": { "s": "U0FNRQ==" }
        }
      },
      {
        "name": "MobilenetV2/expanded_conv/project/BatchNorm/FusedBatchNorm",
        "op": "Add",
        "input": [
          "MobilenetV2/expanded_conv/project/BatchNorm/FusedBatchNorm/Mul",
          "MobilenetV2/expanded_conv/project/BatchNorm/FusedBatchNorm/Offset"
        ],
        "attr": { "T": { "type": "DT_FLOAT" } }
      },
      {
        "name": "MobilenetV2/expanded_conv_1/expand/BatchNorm/FusedBatchNorm/Mul",
        "op": "Conv2D",
        "input": [
          "MobilenetV2/expanded_conv/project/BatchNorm/FusedBatchNorm",
          "MobilenetV2/expanded_conv_1/expand/Conv2D/merged_input"
        ],
        "attr": {
          "dilations": { "list": { "i": ["1", "1", "1", "1"] } },
          "T": { "type": "DT_FLOAT" },
          "data_format": { "s": "TkhXQw==" },
          "strides": { "list": { "i": ["1", "1", "1", "1"] } },
          "use_cudnn_on_gpu": { "b": true },
          "padding": { "s": "U0FNRQ==" }
        }
      },
      {
        "name": "MobilenetV2/expanded_conv_1/expand/BatchNorm/FusedBatchNorm",
        "op": "Add",
        "input": [
          "MobilenetV2/expanded_conv_1/expand/BatchNorm/FusedBatchNorm/Mul",
          "MobilenetV2/expanded_conv_1/expand/BatchNorm/FusedBatchNorm/Offset"
        ],
        "attr": { "T": { "type": "DT_FLOAT" } }
      },
      {
        "name": "MobilenetV2/expanded_conv_1/expand/Relu6",
        "op": "Relu6",
        "input": [
          "MobilenetV2/expanded_conv_1/expand/BatchNorm/FusedBatchNorm"
        ],
        "attr": { "T": { "type": "DT_FLOAT" } }
      },
      {
        "name": "MobilenetV2/expanded_conv_1/depthwise/depthwise",
        "op": "DepthwiseConv2dNative",
        "input": [
          "MobilenetV2/expanded_conv_1/expand/Relu6",
          "MobilenetV2/expanded_conv_1/depthwise/depthwise_weights"
        ],
        "attr": {
          "T": { "type": "DT_FLOAT" },
          "data_format": { "s": "TkhXQw==" },
          "strides": { "list": { "i": ["1", "2", "2", "1"] } },
          "padding": { "s": "U0FNRQ==" },
          "dilations": { "list": { "i": ["1", "1", "1", "1"] } }
        }
      },
      {
        "name": "MobilenetV2/expanded_conv_1/depthwise/BatchNorm/FusedBatchNorm/Mul",
        "op": "Mul",
        "input": [
          "MobilenetV2/expanded_conv_1/depthwise/depthwise",
          "MobilenetV2/expanded_conv_1/depthwise/BatchNorm/FusedBatchNorm/Scaled"
        ],
        "attr": { "T": { "type": "DT_FLOAT" } }
      },
      {
        "name": "MobilenetV2/expanded_conv_1/depthwise/BatchNorm/FusedBatchNorm",
        "op": "Add",
        "input": [
          "MobilenetV2/expanded_conv_1/depthwise/BatchNorm/FusedBatchNorm/Mul",
          "MobilenetV2/expanded_conv_1/depthwise/BatchNorm/FusedBatchNorm/Offset"
        ],
        "attr": { "T": { "type": "DT_FLOAT" } }
      },
      {
        "name": "MobilenetV2/expanded_conv_1/depthwise/Relu6",
        "op": "Relu6",
        "input": [
          "MobilenetV2/expanded_conv_1/depthwise/BatchNorm/FusedBatchNorm"
        ],
        "attr": { "T": { "type": "DT_FLOAT" } }
      },
      {
        "name": "MobilenetV2/expanded_conv_1/project/BatchNorm/FusedBatchNorm/Mul",
        "op": "Conv2D",
        "input": [
          "MobilenetV2/expanded_conv_1/depthwise/Relu6",
          "MobilenetV2/expanded_conv_1/project/Conv2D/merged_input"
        ],
        "attr": {
          "dilations": { "list": { "i": ["1", "1", "1", "1"] } },
          "T": { "type": "DT_FLOAT" },
          "data_format": { "s": "TkhXQw==" },
          "strides": { "list": { "i": ["1", "1", "1", "1"] } },
          "use_cudnn_on_gpu": { "b": true },
          "padding": { "s": "U0FNRQ==" }
        }
      },
      {
        "name": "MobilenetV2/expanded_conv_1/project/BatchNorm/FusedBatchNorm",
        "op": "Add",
        "input": [
          "MobilenetV2/expanded_conv_1/project/BatchNorm/FusedBatchNorm/Mul",
          "MobilenetV2/expanded_conv_1/project/BatchNorm/FusedBatchNorm/Offset"
        ],
        "attr": { "T": { "type": "DT_FLOAT" } }
      },
      {
        "name": "MobilenetV2/expanded_conv_2/expand/BatchNorm/FusedBatchNorm/Mul",
        "op": "Conv2D",
        "input": [
          "MobilenetV2/expanded_conv_1/project/BatchNorm/FusedBatchNorm",
          "MobilenetV2/expanded_conv_2/expand/Conv2D/merged_input"
        ],
        "attr": {
          "dilations": { "list": { "i": ["1", "1", "1", "1"] } },
          "T": { "type": "DT_FLOAT" },
          "strides": { "list": { "i": ["1", "1", "1", "1"] } },
          "data_format": { "s": "TkhXQw==" },
          "use_cudnn_on_gpu": { "b": true },
          "padding": { "s": "U0FNRQ==" }
        }
      },
      {
        "name": "MobilenetV2/expanded_conv_2/expand/BatchNorm/FusedBatchNorm",
        "op": "Add",
        "input": [
          "MobilenetV2/expanded_conv_2/expand/BatchNorm/FusedBatchNorm/Mul",
          "MobilenetV2/expanded_conv_2/expand/BatchNorm/FusedBatchNorm/Offset"
        ],
        "attr": { "T": { "type": "DT_FLOAT" } }
      },
      {
        "name": "MobilenetV2/expanded_conv_2/expand/Relu6",
        "op": "Relu6",
        "input": [
          "MobilenetV2/expanded_conv_2/expand/BatchNorm/FusedBatchNorm"
        ],
        "attr": { "T": { "type": "DT_FLOAT" } }
      },
      {
        "name": "MobilenetV2/expanded_conv_2/depthwise/depthwise",
        "op": "DepthwiseConv2dNative",
        "input": [
          "MobilenetV2/expanded_conv_2/expand/Relu6",
          "MobilenetV2/expanded_conv_2/depthwise/depthwise_weights"
        ],
        "attr": {
          "padding": { "s": "U0FNRQ==" },
          "dilations": { "list": { "i": ["1", "1", "1", "1"] } },
          "T": { "type": "DT_FLOAT" },
          "strides": { "list": { "i": ["1", "1", "1", "1"] } },
          "data_format": { "s": "TkhXQw==" }
        }
      },
      {
        "name": "MobilenetV2/expanded_conv_2/depthwise/BatchNorm/FusedBatchNorm/Mul",
        "op": "Mul",
        "input": [
          "MobilenetV2/expanded_conv_2/depthwise/depthwise",
          "MobilenetV2/expanded_conv_2/depthwise/BatchNorm/FusedBatchNorm/Scaled"
        ],
        "attr": { "T": { "type": "DT_FLOAT" } }
      },
      {
        "name": "MobilenetV2/expanded_conv_2/depthwise/BatchNorm/FusedBatchNorm",
        "op": "Add",
        "input": [
          "MobilenetV2/expanded_conv_2/depthwise/BatchNorm/FusedBatchNorm/Mul",
          "MobilenetV2/expanded_conv_2/depthwise/BatchNorm/FusedBatchNorm/Offset"
        ],
        "attr": { "T": { "type": "DT_FLOAT" } }
      },
      {
        "name": "MobilenetV2/expanded_conv_2/depthwise/Relu6",
        "op": "Relu6",
        "input": [
          "MobilenetV2/expanded_conv_2/depthwise/BatchNorm/FusedBatchNorm"
        ],
        "attr": { "T": { "type": "DT_FLOAT" } }
      },
      {
        "name": "MobilenetV2/expanded_conv_2/project/BatchNorm/FusedBatchNorm/Mul",
        "op": "Conv2D",
        "input": [
          "MobilenetV2/expanded_conv_2/depthwise/Relu6",
          "MobilenetV2/expanded_conv_2/project/Conv2D/merged_input"
        ],
        "attr": {
          "dilations": { "list": { "i": ["1", "1", "1", "1"] } },
          "T": { "type": "DT_FLOAT" },
          "strides": { "list": { "i": ["1", "1", "1", "1"] } },
          "data_format": { "s": "TkhXQw==" },
          "use_cudnn_on_gpu": { "b": true },
          "padding": { "s": "U0FNRQ==" }
        }
      },
      {
        "name": "MobilenetV2/expanded_conv_2/ArithmeticOptimizer/AddOpsRewrite_Leaf_1_add",
        "op": "AddN",
        "input": [
          "MobilenetV2/expanded_conv_2/project/BatchNorm/FusedBatchNorm/Mul",
          "MobilenetV2/expanded_conv_1/project/BatchNorm/FusedBatchNorm"
        ],
        "attr": {
          "T": { "type": "DT_FLOAT" },
          "N": { "i": "2" },
          "_grappler:ArithmeticOptimizer:AddOpsRewriteStage": { "b": true }
        }
      },
      {
        "name": "MobilenetV2/expanded_conv_2/ArithmeticOptimizer/AddOpsRewrite_add",
        "op": "Add",
        "input": [
          "MobilenetV2/expanded_conv_2/project/BatchNorm/FusedBatchNorm/Offset",
          "MobilenetV2/expanded_conv_2/ArithmeticOptimizer/AddOpsRewrite_Leaf_1_add"
        ],
        "attr": {
          "T": { "type": "DT_FLOAT" },
          "_grappler:ArithmeticOptimizer:AddOpsRewriteStage": { "b": true }
        }
      },
      {
        "name": "MobilenetV2/expanded_conv_3/expand/BatchNorm/FusedBatchNorm/Mul",
        "op": "Conv2D",
        "input": [
          "MobilenetV2/expanded_conv_2/ArithmeticOptimizer/AddOpsRewrite_add",
          "MobilenetV2/expanded_conv_3/expand/Conv2D/merged_input"
        ],
        "attr": {
          "padding": { "s": "U0FNRQ==" },
          "dilations": { "list": { "i": ["1", "1", "1", "1"] } },
          "T": { "type": "DT_FLOAT" },
          "strides": { "list": { "i": ["1", "1", "1", "1"] } },
          "data_format": { "s": "TkhXQw==" },
          "use_cudnn_on_gpu": { "b": true }
        }
      },
      {
        "name": "MobilenetV2/expanded_conv_3/expand/BatchNorm/FusedBatchNorm",
        "op": "Add",
        "input": [
          "MobilenetV2/expanded_conv_3/expand/BatchNorm/FusedBatchNorm/Mul",
          "MobilenetV2/expanded_conv_3/expand/BatchNorm/FusedBatchNorm/Offset"
        ],
        "attr": { "T": { "type": "DT_FLOAT" } }
      },
      {
        "name": "MobilenetV2/expanded_conv_3/expand/Relu6",
        "op": "Relu6",
        "input": [
          "MobilenetV2/expanded_conv_3/expand/BatchNorm/FusedBatchNorm"
        ],
        "attr": { "T": { "type": "DT_FLOAT" } }
      },
      {
        "name": "MobilenetV2/expanded_conv_3/depthwise/depthwise",
        "op": "DepthwiseConv2dNative",
        "input": [
          "MobilenetV2/expanded_conv_3/expand/Relu6",
          "MobilenetV2/expanded_conv_3/depthwise/depthwise_weights"
        ],
        "attr": {
          "data_format": { "s": "TkhXQw==" },
          "strides": { "list": { "i": ["1", "2", "2", "1"] } },
          "padding": { "s": "U0FNRQ==" },
          "dilations": { "list": { "i": ["1", "1", "1", "1"] } },
          "T": { "type": "DT_FLOAT" }
        }
      },
      {
        "name": "MobilenetV2/expanded_conv_3/depthwise/BatchNorm/FusedBatchNorm/Mul",
        "op": "Mul",
        "input": [
          "MobilenetV2/expanded_conv_3/depthwise/depthwise",
          "MobilenetV2/expanded_conv_3/depthwise/BatchNorm/FusedBatchNorm/Scaled"
        ],
        "attr": { "T": { "type": "DT_FLOAT" } }
      },
      {
        "name": "MobilenetV2/expanded_conv_3/depthwise/BatchNorm/FusedBatchNorm",
        "op": "Add",
        "input": [
          "MobilenetV2/expanded_conv_3/depthwise/BatchNorm/FusedBatchNorm/Mul",
          "MobilenetV2/expanded_conv_3/depthwise/BatchNorm/FusedBatchNorm/Offset"
        ],
        "attr": { "T": { "type": "DT_FLOAT" } }
      },
      {
        "name": "MobilenetV2/expanded_conv_3/depthwise/Relu6",
        "op": "Relu6",
        "input": [
          "MobilenetV2/expanded_conv_3/depthwise/BatchNorm/FusedBatchNorm"
        ],
        "attr": { "T": { "type": "DT_FLOAT" } }
      },
      {
        "name": "MobilenetV2/expanded_conv_3/project/BatchNorm/FusedBatchNorm/Mul",
        "op": "Conv2D",
        "input": [
          "MobilenetV2/expanded_conv_3/depthwise/Relu6",
          "MobilenetV2/expanded_conv_3/project/Conv2D/merged_input"
        ],
        "attr": {
          "padding": { "s": "U0FNRQ==" },
          "dilations": { "list": { "i": ["1", "1", "1", "1"] } },
          "T": { "type": "DT_FLOAT" },
          "strides": { "list": { "i": ["1", "1", "1", "1"] } },
          "data_format": { "s": "TkhXQw==" },
          "use_cudnn_on_gpu": { "b": true }
        }
      },
      {
        "name": "MobilenetV2/expanded_conv_3/project/BatchNorm/FusedBatchNorm",
        "op": "Add",
        "input": [
          "MobilenetV2/expanded_conv_3/project/BatchNorm/FusedBatchNorm/Mul",
          "MobilenetV2/expanded_conv_3/project/BatchNorm/FusedBatchNorm/Offset"
        ],
        "attr": { "T": { "type": "DT_FLOAT" } }
      },
      {
        "name": "MobilenetV2/expanded_conv_4/expand/BatchNorm/FusedBatchNorm/Mul",
        "op": "Conv2D",
        "input": [
          "MobilenetV2/expanded_conv_3/project/BatchNorm/FusedBatchNorm",
          "MobilenetV2/expanded_conv_4/expand/Conv2D/merged_input"
        ],
        "attr": {
          "dilations": { "list": { "i": ["1", "1", "1", "1"] } },
          "T": { "type": "DT_FLOAT" },
          "data_format": { "s": "TkhXQw==" },
          "strides": { "list": { "i": ["1", "1", "1", "1"] } },
          "use_cudnn_on_gpu": { "b": true },
          "padding": { "s": "U0FNRQ==" }
        }
      },
      {
        "name": "MobilenetV2/expanded_conv_4/expand/BatchNorm/FusedBatchNorm",
        "op": "Add",
        "input": [
          "MobilenetV2/expanded_conv_4/expand/BatchNorm/FusedBatchNorm/Mul",
          "MobilenetV2/expanded_conv_4/expand/BatchNorm/FusedBatchNorm/Offset"
        ],
        "attr": { "T": { "type": "DT_FLOAT" } }
      },
      {
        "name": "MobilenetV2/expanded_conv_4/expand/Relu6",
        "op": "Relu6",
        "input": [
          "MobilenetV2/expanded_conv_4/expand/BatchNorm/FusedBatchNorm"
        ],
        "attr": { "T": { "type": "DT_FLOAT" } }
      },
      {
        "name": "MobilenetV2/expanded_conv_4/depthwise/depthwise",
        "op": "DepthwiseConv2dNative",
        "input": [
          "MobilenetV2/expanded_conv_4/expand/Relu6",
          "MobilenetV2/expanded_conv_4/depthwise/depthwise_weights"
        ],
        "attr": {
          "dilations": { "list": { "i": ["1", "1", "1", "1"] } },
          "padding": { "s": "U0FNRQ==" },
          "T": { "type": "DT_FLOAT" },
          "data_format": { "s": "TkhXQw==" },
          "strides": { "list": { "i": ["1", "1", "1", "1"] } }
        }
      },
      {
        "name": "MobilenetV2/expanded_conv_4/depthwise/BatchNorm/FusedBatchNorm/Mul",
        "op": "Mul",
        "input": [
          "MobilenetV2/expanded_conv_4/depthwise/depthwise",
          "MobilenetV2/expanded_conv_4/depthwise/BatchNorm/FusedBatchNorm/Scaled"
        ],
        "attr": { "T": { "type": "DT_FLOAT" } }
      },
      {
        "name": "MobilenetV2/expanded_conv_4/depthwise/BatchNorm/FusedBatchNorm",
        "op": "Add",
        "input": [
          "MobilenetV2/expanded_conv_4/depthwise/BatchNorm/FusedBatchNorm/Mul",
          "MobilenetV2/expanded_conv_4/depthwise/BatchNorm/FusedBatchNorm/Offset"
        ],
        "attr": { "T": { "type": "DT_FLOAT" } }
      },
      {
        "name": "MobilenetV2/expanded_conv_4/depthwise/Relu6",
        "op": "Relu6",
        "input": [
          "MobilenetV2/expanded_conv_4/depthwise/BatchNorm/FusedBatchNorm"
        ],
        "attr": { "T": { "type": "DT_FLOAT" } }
      },
      {
        "name": "MobilenetV2/expanded_conv_4/project/BatchNorm/FusedBatchNorm/Mul",
        "op": "Conv2D",
        "input": [
          "MobilenetV2/expanded_conv_4/depthwise/Relu6",
          "MobilenetV2/expanded_conv_4/project/Conv2D/merged_input"
        ],
        "attr": {
          "T": { "type": "DT_FLOAT" },
          "data_format": { "s": "TkhXQw==" },
          "strides": { "list": { "i": ["1", "1", "1", "1"] } },
          "use_cudnn_on_gpu": { "b": true },
          "padding": { "s": "U0FNRQ==" },
          "dilations": { "list": { "i": ["1", "1", "1", "1"] } }
        }
      },
      {
        "name": "MobilenetV2/expanded_conv_4/ArithmeticOptimizer/AddOpsRewrite_Leaf_1_add",
        "op": "AddN",
        "input": [
          "MobilenetV2/expanded_conv_4/project/BatchNorm/FusedBatchNorm/Mul",
          "MobilenetV2/expanded_conv_3/project/BatchNorm/FusedBatchNorm"
        ],
        "attr": {
          "T": { "type": "DT_FLOAT" },
          "N": { "i": "2" },
          "_grappler:ArithmeticOptimizer:AddOpsRewriteStage": { "b": true }
        }
      },
      {
        "name": "MobilenetV2/expanded_conv_4/ArithmeticOptimizer/AddOpsRewrite_add",
        "op": "Add",
        "input": [
          "MobilenetV2/expanded_conv_4/project/BatchNorm/FusedBatchNorm/Offset",
          "MobilenetV2/expanded_conv_4/ArithmeticOptimizer/AddOpsRewrite_Leaf_1_add"
        ],
        "attr": {
          "_grappler:ArithmeticOptimizer:AddOpsRewriteStage": { "b": true },
          "T": { "type": "DT_FLOAT" }
        }
      },
      {
        "name": "MobilenetV2/expanded_conv_5/expand/BatchNorm/FusedBatchNorm/Mul",
        "op": "Conv2D",
        "input": [
          "MobilenetV2/expanded_conv_4/ArithmeticOptimizer/AddOpsRewrite_add",
          "MobilenetV2/expanded_conv_5/expand/Conv2D/merged_input"
        ],
        "attr": {
          "use_cudnn_on_gpu": { "b": true },
          "padding": { "s": "U0FNRQ==" },
          "dilations": { "list": { "i": ["1", "1", "1", "1"] } },
          "T": { "type": "DT_FLOAT" },
          "strides": { "list": { "i": ["1", "1", "1", "1"] } },
          "data_format": { "s": "TkhXQw==" }
        }
      },
      {
        "name": "MobilenetV2/expanded_conv_5/expand/BatchNorm/FusedBatchNorm",
        "op": "Add",
        "input": [
          "MobilenetV2/expanded_conv_5/expand/BatchNorm/FusedBatchNorm/Mul",
          "MobilenetV2/expanded_conv_5/expand/BatchNorm/FusedBatchNorm/Offset"
        ],
        "attr": { "T": { "type": "DT_FLOAT" } }
      },
      {
        "name": "MobilenetV2/expanded_conv_5/expand/Relu6",
        "op": "Relu6",
        "input": [
          "MobilenetV2/expanded_conv_5/expand/BatchNorm/FusedBatchNorm"
        ],
        "attr": { "T": { "type": "DT_FLOAT" } }
      },
      {
        "name": "MobilenetV2/expanded_conv_5/depthwise/depthwise",
        "op": "DepthwiseConv2dNative",
        "input": [
          "MobilenetV2/expanded_conv_5/expand/Relu6",
          "MobilenetV2/expanded_conv_5/depthwise/depthwise_weights"
        ],
        "attr": {
          "padding": { "s": "U0FNRQ==" },
          "dilations": { "list": { "i": ["1", "1", "1", "1"] } },
          "T": { "type": "DT_FLOAT" },
          "strides": { "list": { "i": ["1", "1", "1", "1"] } },
          "data_format": { "s": "TkhXQw==" }
        }
      },
      {
        "name": "MobilenetV2/expanded_conv_5/depthwise/BatchNorm/FusedBatchNorm/Mul",
        "op": "Mul",
        "input": [
          "MobilenetV2/expanded_conv_5/depthwise/depthwise",
          "MobilenetV2/expanded_conv_5/depthwise/BatchNorm/FusedBatchNorm/Scaled"
        ],
        "attr": { "T": { "type": "DT_FLOAT" } }
      },
      {
        "name": "MobilenetV2/expanded_conv_5/depthwise/BatchNorm/FusedBatchNorm",
        "op": "Add",
        "input": [
          "MobilenetV2/expanded_conv_5/depthwise/BatchNorm/FusedBatchNorm/Mul",
          "MobilenetV2/expanded_conv_5/depthwise/BatchNorm/FusedBatchNorm/Offset"
        ],
        "attr": { "T": { "type": "DT_FLOAT" } }
      },
      {
        "name": "MobilenetV2/expanded_conv_5/depthwise/Relu6",
        "op": "Relu6",
        "input": [
          "MobilenetV2/expanded_conv_5/depthwise/BatchNorm/FusedBatchNorm"
        ],
        "attr": { "T": { "type": "DT_FLOAT" } }
      },
      {
        "name": "MobilenetV2/expanded_conv_5/project/BatchNorm/FusedBatchNorm/Mul",
        "op": "Conv2D",
        "input": [
          "MobilenetV2/expanded_conv_5/depthwise/Relu6",
          "MobilenetV2/expanded_conv_5/project/Conv2D/merged_input"
        ],
        "attr": {
          "padding": { "s": "U0FNRQ==" },
          "dilations": { "list": { "i": ["1", "1", "1", "1"] } },
          "T": { "type": "DT_FLOAT" },
          "data_format": { "s": "TkhXQw==" },
          "strides": { "list": { "i": ["1", "1", "1", "1"] } },
          "use_cudnn_on_gpu": { "b": true }
        }
      },
      {
        "name": "MobilenetV2/expanded_conv_5/ArithmeticOptimizer/AddOpsRewrite_Leaf_1_add",
        "op": "AddN",
        "input": [
          "MobilenetV2/expanded_conv_5/project/BatchNorm/FusedBatchNorm/Mul",
          "MobilenetV2/expanded_conv_4/ArithmeticOptimizer/AddOpsRewrite_add"
        ],
        "attr": {
          "T": { "type": "DT_FLOAT" },
          "N": { "i": "2" },
          "_grappler:ArithmeticOptimizer:AddOpsRewriteStage": { "b": true }
        }
      },
      {
        "name": "MobilenetV2/expanded_conv_5/ArithmeticOptimizer/AddOpsRewrite_add",
        "op": "Add",
        "input": [
          "MobilenetV2/expanded_conv_5/project/BatchNorm/FusedBatchNorm/Offset",
          "MobilenetV2/expanded_conv_5/ArithmeticOptimizer/AddOpsRewrite_Leaf_1_add"
        ],
        "attr": {
          "T": { "type": "DT_FLOAT" },
          "_grappler:ArithmeticOptimizer:AddOpsRewriteStage": { "b": true }
        }
      },
      {
        "name": "MobilenetV2/expanded_conv_6/expand/BatchNorm/FusedBatchNorm/Mul",
        "op": "Conv2D",
        "input": [
          "MobilenetV2/expanded_conv_5/ArithmeticOptimizer/AddOpsRewrite_add",
          "MobilenetV2/expanded_conv_6/expand/Conv2D/merged_input"
        ],
        "attr": {
          "T": { "type": "DT_FLOAT" },
          "strides": { "list": { "i": ["1", "1", "1", "1"] } },
          "data_format": { "s": "TkhXQw==" },
          "use_cudnn_on_gpu": { "b": true },
          "padding": { "s": "U0FNRQ==" },
          "dilations": { "list": { "i": ["1", "1", "1", "1"] } }
        }
      },
      {
        "name": "MobilenetV2/expanded_conv_6/expand/BatchNorm/FusedBatchNorm",
        "op": "Add",
        "input": [
          "MobilenetV2/expanded_conv_6/expand/BatchNorm/FusedBatchNorm/Mul",
          "MobilenetV2/expanded_conv_6/expand/BatchNorm/FusedBatchNorm/Offset"
        ],
        "attr": { "T": { "type": "DT_FLOAT" } }
      },
      {
        "name": "MobilenetV2/expanded_conv_6/expand/Relu6",
        "op": "Relu6",
        "input": [
          "MobilenetV2/expanded_conv_6/expand/BatchNorm/FusedBatchNorm"
        ],
        "attr": { "T": { "type": "DT_FLOAT" } }
      },
      {
        "name": "MobilenetV2/expanded_conv_6/depthwise/depthwise",
        "op": "DepthwiseConv2dNative",
        "input": [
          "MobilenetV2/expanded_conv_6/expand/Relu6",
          "MobilenetV2/expanded_conv_6/depthwise/depthwise_weights"
        ],
        "attr": {
          "dilations": { "list": { "i": ["1", "1", "1", "1"] } },
          "padding": { "s": "U0FNRQ==" },
          "T": { "type": "DT_FLOAT" },
          "strides": { "list": { "i": ["1", "1", "1", "1"] } },
          "data_format": { "s": "TkhXQw==" }
        }
      },
      {
        "name": "MobilenetV2/expanded_conv_6/depthwise/BatchNorm/FusedBatchNorm/Mul",
        "op": "Mul",
        "input": [
          "MobilenetV2/expanded_conv_6/depthwise/depthwise",
          "MobilenetV2/expanded_conv_6/depthwise/BatchNorm/FusedBatchNorm/Scaled"
        ],
        "attr": { "T": { "type": "DT_FLOAT" } }
      },
      {
        "name": "MobilenetV2/expanded_conv_6/depthwise/BatchNorm/FusedBatchNorm",
        "op": "Add",
        "input": [
          "MobilenetV2/expanded_conv_6/depthwise/BatchNorm/FusedBatchNorm/Mul",
          "MobilenetV2/expanded_conv_6/depthwise/BatchNorm/FusedBatchNorm/Offset"
        ],
        "attr": { "T": { "type": "DT_FLOAT" } }
      },
      {
        "name": "MobilenetV2/expanded_conv_6/depthwise/Relu6",
        "op": "Relu6",
        "input": [
          "MobilenetV2/expanded_conv_6/depthwise/BatchNorm/FusedBatchNorm"
        ],
        "attr": { "T": { "type": "DT_FLOAT" } }
      },
      {
        "name": "MobilenetV2/expanded_conv_6/project/BatchNorm/FusedBatchNorm/Mul",
        "op": "Conv2D",
        "input": [
          "MobilenetV2/expanded_conv_6/depthwise/Relu6",
          "MobilenetV2/expanded_conv_6/project/Conv2D/merged_input"
        ],
        "attr": {
          "dilations": { "list": { "i": ["1", "1", "1", "1"] } },
          "T": { "type": "DT_FLOAT" },
          "strides": { "list": { "i": ["1", "1", "1", "1"] } },
          "data_format": { "s": "TkhXQw==" },
          "use_cudnn_on_gpu": { "b": true },
          "padding": { "s": "U0FNRQ==" }
        }
      },
      {
        "name": "MobilenetV2/expanded_conv_6/project/BatchNorm/FusedBatchNorm",
        "op": "Add",
        "input": [
          "MobilenetV2/expanded_conv_6/project/BatchNorm/FusedBatchNorm/Mul",
          "MobilenetV2/expanded_conv_6/project/BatchNorm/FusedBatchNorm/Offset"
        ],
        "attr": { "T": { "type": "DT_FLOAT" } }
      },
      {
        "name": "MobilenetV2/expanded_conv_7/expand/BatchNorm/FusedBatchNorm/Mul",
        "op": "Conv2D",
        "input": [
          "MobilenetV2/expanded_conv_6/project/BatchNorm/FusedBatchNorm",
          "MobilenetV2/expanded_conv_7/expand/Conv2D/merged_input"
        ],
        "attr": {
          "dilations": { "list": { "i": ["1", "1", "1", "1"] } },
          "T": { "type": "DT_FLOAT" },
          "data_format": { "s": "TkhXQw==" },
          "strides": { "list": { "i": ["1", "1", "1", "1"] } },
          "use_cudnn_on_gpu": { "b": true },
          "padding": { "s": "U0FNRQ==" }
        }
      },
      {
        "name": "MobilenetV2/expanded_conv_7/expand/BatchNorm/FusedBatchNorm",
        "op": "Add",
        "input": [
          "MobilenetV2/expanded_conv_7/expand/BatchNorm/FusedBatchNorm/Mul",
          "MobilenetV2/expanded_conv_7/expand/BatchNorm/FusedBatchNorm/Offset"
        ],
        "attr": { "T": { "type": "DT_FLOAT" } }
      },
      {
        "name": "MobilenetV2/expanded_conv_7/expand/Relu6",
        "op": "Relu6",
        "input": [
          "MobilenetV2/expanded_conv_7/expand/BatchNorm/FusedBatchNorm"
        ],
        "attr": { "T": { "type": "DT_FLOAT" } }
      },
      {
        "name": "MobilenetV2/expanded_conv_7/depthwise/depthwise/SpaceToBatchND",
        "op": "SpaceToBatchND",
        "input": [
          "MobilenetV2/expanded_conv_7/expand/Relu6",
          "MobilenetV2/expanded_conv_12/depthwise/depthwise/SpaceToBatchND/block_shape",
          "MobilenetV2/expanded_conv_12/depthwise/depthwise/SpaceToBatchND/paddings"
        ],
        "attr": {
          "T": { "type": "DT_FLOAT" },
          "Tpaddings": { "type": "DT_INT32" },
          "Tblock_shape": { "type": "DT_INT32" }
        }
      },
      {
        "name": "MobilenetV2/expanded_conv_7/depthwise/depthwise",
        "op": "DepthwiseConv2dNative",
        "input": [
          "MobilenetV2/expanded_conv_7/depthwise/depthwise/SpaceToBatchND",
          "MobilenetV2/expanded_conv_7/depthwise/depthwise_weights"
        ],
        "attr": {
          "data_format": { "s": "TkhXQw==" },
          "strides": { "list": { "i": ["1", "1", "1", "1"] } },
          "padding": { "s": "VkFMSUQ=" },
          "dilations": { "list": { "i": ["1", "1", "1", "1"] } },
          "T": { "type": "DT_FLOAT" }
        }
      },
      {
        "name": "MobilenetV2/expanded_conv_7/depthwise/depthwise/BatchToSpaceND",
        "op": "BatchToSpaceND",
        "input": [
          "MobilenetV2/expanded_conv_7/depthwise/depthwise",
          "MobilenetV2/expanded_conv_12/depthwise/depthwise/SpaceToBatchND/block_shape",
          "MobilenetV2/expanded_conv_12/depthwise/depthwise/BatchToSpaceND/crops"
        ],
        "attr": {
          "Tcrops": { "type": "DT_INT32" },
          "T": { "type": "DT_FLOAT" },
          "Tblock_shape": { "type": "DT_INT32" }
        }
      },
      {
        "name": "MobilenetV2/expanded_conv_7/depthwise/BatchNorm/FusedBatchNorm/Mul",
        "op": "Mul",
        "input": [
          "MobilenetV2/expanded_conv_7/depthwise/depthwise/BatchToSpaceND",
          "MobilenetV2/expanded_conv_7/depthwise/BatchNorm/FusedBatchNorm/Scaled"
        ],
        "attr": { "T": { "type": "DT_FLOAT" } }
      },
      {
        "name": "MobilenetV2/expanded_conv_7/depthwise/BatchNorm/FusedBatchNorm",
        "op": "Add",
        "input": [
          "MobilenetV2/expanded_conv_7/depthwise/BatchNorm/FusedBatchNorm/Mul",
          "MobilenetV2/expanded_conv_7/depthwise/BatchNorm/FusedBatchNorm/Offset"
        ],
        "attr": { "T": { "type": "DT_FLOAT" } }
      },
      {
        "name": "MobilenetV2/expanded_conv_7/depthwise/Relu6",
        "op": "Relu6",
        "input": [
          "MobilenetV2/expanded_conv_7/depthwise/BatchNorm/FusedBatchNorm"
        ],
        "attr": { "T": { "type": "DT_FLOAT" } }
      },
      {
        "name": "MobilenetV2/expanded_conv_7/project/BatchNorm/FusedBatchNorm/Mul",
        "op": "Conv2D",
        "input": [
          "MobilenetV2/expanded_conv_7/depthwise/Relu6",
          "MobilenetV2/expanded_conv_7/project/Conv2D/merged_input"
        ],
        "attr": {
          "T": { "type": "DT_FLOAT" },
          "data_format": { "s": "TkhXQw==" },
          "strides": { "list": { "i": ["1", "1", "1", "1"] } },
          "use_cudnn_on_gpu": { "b": true },
          "padding": { "s": "U0FNRQ==" },
          "dilations": { "list": { "i": ["1", "1", "1", "1"] } }
        }
      },
      {
        "name": "MobilenetV2/expanded_conv_7/project/BatchNorm/FusedBatchNorm",
        "op": "Add",
        "input": [
          "MobilenetV2/expanded_conv_7/project/BatchNorm/FusedBatchNorm/Mul",
          "MobilenetV2/expanded_conv_7/project/BatchNorm/FusedBatchNorm/Offset"
        ],
        "attr": { "T": { "type": "DT_FLOAT" } }
      },
      {
        "name": "MobilenetV2/expanded_conv_7/add",
        "op": "Add",
        "input": [
          "MobilenetV2/expanded_conv_7/project/BatchNorm/FusedBatchNorm",
          "MobilenetV2/expanded_conv_6/project/BatchNorm/FusedBatchNorm"
        ],
        "attr": { "T": { "type": "DT_FLOAT" } }
      },
      {
        "name": "MobilenetV2/expanded_conv_8/expand/BatchNorm/FusedBatchNorm/Mul",
        "op": "Conv2D",
        "input": [
          "MobilenetV2/expanded_conv_7/add",
          "MobilenetV2/expanded_conv_8/expand/Conv2D/merged_input"
        ],
        "attr": {
          "dilations": { "list": { "i": ["1", "1", "1", "1"] } },
          "T": { "type": "DT_FLOAT" },
          "data_format": { "s": "TkhXQw==" },
          "strides": { "list": { "i": ["1", "1", "1", "1"] } },
          "use_cudnn_on_gpu": { "b": true },
          "padding": { "s": "U0FNRQ==" }
        }
      },
      {
        "name": "MobilenetV2/expanded_conv_8/expand/BatchNorm/FusedBatchNorm",
        "op": "Add",
        "input": [
          "MobilenetV2/expanded_conv_8/expand/BatchNorm/FusedBatchNorm/Mul",
          "MobilenetV2/expanded_conv_8/expand/BatchNorm/FusedBatchNorm/Offset"
        ],
        "attr": { "T": { "type": "DT_FLOAT" } }
      },
      {
        "name": "MobilenetV2/expanded_conv_8/expand/Relu6",
        "op": "Relu6",
        "input": [
          "MobilenetV2/expanded_conv_8/expand/BatchNorm/FusedBatchNorm"
        ],
        "attr": { "T": { "type": "DT_FLOAT" } }
      },
      {
        "name": "MobilenetV2/expanded_conv_8/depthwise/depthwise/SpaceToBatchND",
        "op": "SpaceToBatchND",
        "input": [
          "MobilenetV2/expanded_conv_8/expand/Relu6",
          "MobilenetV2/expanded_conv_12/depthwise/depthwise/SpaceToBatchND/block_shape",
          "MobilenetV2/expanded_conv_12/depthwise/depthwise/SpaceToBatchND/paddings"
        ],
        "attr": {
          "Tpaddings": { "type": "DT_INT32" },
          "Tblock_shape": { "type": "DT_INT32" },
          "T": { "type": "DT_FLOAT" }
        }
      },
      {
        "name": "MobilenetV2/expanded_conv_8/depthwise/depthwise",
        "op": "DepthwiseConv2dNative",
        "input": [
          "MobilenetV2/expanded_conv_8/depthwise/depthwise/SpaceToBatchND",
          "MobilenetV2/expanded_conv_8/depthwise/depthwise_weights"
        ],
        "attr": {
          "dilations": { "list": { "i": ["1", "1", "1", "1"] } },
          "padding": { "s": "VkFMSUQ=" },
          "T": { "type": "DT_FLOAT" },
          "data_format": { "s": "TkhXQw==" },
          "strides": { "list": { "i": ["1", "1", "1", "1"] } }
        }
      },
      {
        "name": "MobilenetV2/expanded_conv_8/depthwise/depthwise/BatchToSpaceND",
        "op": "BatchToSpaceND",
        "input": [
          "MobilenetV2/expanded_conv_8/depthwise/depthwise",
          "MobilenetV2/expanded_conv_12/depthwise/depthwise/SpaceToBatchND/block_shape",
          "MobilenetV2/expanded_conv_12/depthwise/depthwise/BatchToSpaceND/crops"
        ],
        "attr": {
          "Tblock_shape": { "type": "DT_INT32" },
          "Tcrops": { "type": "DT_INT32" },
          "T": { "type": "DT_FLOAT" }
        }
      },
      {
        "name": "MobilenetV2/expanded_conv_8/depthwise/BatchNorm/FusedBatchNorm/Mul",
        "op": "Mul",
        "input": [
          "MobilenetV2/expanded_conv_8/depthwise/depthwise/BatchToSpaceND",
          "MobilenetV2/expanded_conv_8/depthwise/BatchNorm/FusedBatchNorm/Scaled"
        ],
        "attr": { "T": { "type": "DT_FLOAT" } }
      },
      {
        "name": "MobilenetV2/expanded_conv_8/depthwise/BatchNorm/FusedBatchNorm",
        "op": "Add",
        "input": [
          "MobilenetV2/expanded_conv_8/depthwise/BatchNorm/FusedBatchNorm/Mul",
          "MobilenetV2/expanded_conv_8/depthwise/BatchNorm/FusedBatchNorm/Offset"
        ],
        "attr": { "T": { "type": "DT_FLOAT" } }
      },
      {
        "name": "MobilenetV2/expanded_conv_8/depthwise/Relu6",
        "op": "Relu6",
        "input": [
          "MobilenetV2/expanded_conv_8/depthwise/BatchNorm/FusedBatchNorm"
        ],
        "attr": { "T": { "type": "DT_FLOAT" } }
      },
      {
        "name": "MobilenetV2/expanded_conv_8/project/BatchNorm/FusedBatchNorm/Mul",
        "op": "Conv2D",
        "input": [
          "MobilenetV2/expanded_conv_8/depthwise/Relu6",
          "MobilenetV2/expanded_conv_8/project/Conv2D/merged_input"
        ],
        "attr": {
          "padding": { "s": "U0FNRQ==" },
          "dilations": { "list": { "i": ["1", "1", "1", "1"] } },
          "T": { "type": "DT_FLOAT" },
          "data_format": { "s": "TkhXQw==" },
          "strides": { "list": { "i": ["1", "1", "1", "1"] } },
          "use_cudnn_on_gpu": { "b": true }
        }
      },
      {
        "name": "MobilenetV2/expanded_conv_8/project/BatchNorm/FusedBatchNorm",
        "op": "Add",
        "input": [
          "MobilenetV2/expanded_conv_8/project/BatchNorm/FusedBatchNorm/Mul",
          "MobilenetV2/expanded_conv_8/project/BatchNorm/FusedBatchNorm/Offset"
        ],
        "attr": { "T": { "type": "DT_FLOAT" } }
      },
      {
        "name": "MobilenetV2/expanded_conv_8/add",
        "op": "Add",
        "input": [
          "MobilenetV2/expanded_conv_8/project/BatchNorm/FusedBatchNorm",
          "MobilenetV2/expanded_conv_7/add"
        ],
        "attr": { "T": { "type": "DT_FLOAT" } }
      },
      {
        "name": "MobilenetV2/expanded_conv_9/expand/BatchNorm/FusedBatchNorm/Mul",
        "op": "Conv2D",
        "input": [
          "MobilenetV2/expanded_conv_8/add",
          "MobilenetV2/expanded_conv_9/expand/Conv2D/merged_input"
        ],
        "attr": {
          "dilations": { "list": { "i": ["1", "1", "1", "1"] } },
          "T": { "type": "DT_FLOAT" },
          "data_format": { "s": "TkhXQw==" },
          "strides": { "list": { "i": ["1", "1", "1", "1"] } },
          "use_cudnn_on_gpu": { "b": true },
          "padding": { "s": "U0FNRQ==" }
        }
      },
      {
        "name": "MobilenetV2/expanded_conv_9/expand/BatchNorm/FusedBatchNorm",
        "op": "Add",
        "input": [
          "MobilenetV2/expanded_conv_9/expand/BatchNorm/FusedBatchNorm/Mul",
          "MobilenetV2/expanded_conv_9/expand/BatchNorm/FusedBatchNorm/Offset"
        ],
        "attr": { "T": { "type": "DT_FLOAT" } }
      },
      {
        "name": "MobilenetV2/expanded_conv_9/expand/Relu6",
        "op": "Relu6",
        "input": [
          "MobilenetV2/expanded_conv_9/expand/BatchNorm/FusedBatchNorm"
        ],
        "attr": { "T": { "type": "DT_FLOAT" } }
      },
      {
        "name": "MobilenetV2/expanded_conv_9/depthwise/depthwise/SpaceToBatchND",
        "op": "SpaceToBatchND",
        "input": [
          "MobilenetV2/expanded_conv_9/expand/Relu6",
          "MobilenetV2/expanded_conv_12/depthwise/depthwise/SpaceToBatchND/block_shape",
          "MobilenetV2/expanded_conv_12/depthwise/depthwise/SpaceToBatchND/paddings"
        ],
        "attr": {
          "T": { "type": "DT_FLOAT" },
          "Tpaddings": { "type": "DT_INT32" },
          "Tblock_shape": { "type": "DT_INT32" }
        }
      },
      {
        "name": "MobilenetV2/expanded_conv_9/depthwise/depthwise",
        "op": "DepthwiseConv2dNative",
        "input": [
          "MobilenetV2/expanded_conv_9/depthwise/depthwise/SpaceToBatchND",
          "MobilenetV2/expanded_conv_9/depthwise/depthwise_weights"
        ],
        "attr": {
          "strides": { "list": { "i": ["1", "1", "1", "1"] } },
          "data_format": { "s": "TkhXQw==" },
          "padding": { "s": "VkFMSUQ=" },
          "dilations": { "list": { "i": ["1", "1", "1", "1"] } },
          "T": { "type": "DT_FLOAT" }
        }
      },
      {
        "name": "MobilenetV2/expanded_conv_9/depthwise/depthwise/BatchToSpaceND",
        "op": "BatchToSpaceND",
        "input": [
          "MobilenetV2/expanded_conv_9/depthwise/depthwise",
          "MobilenetV2/expanded_conv_12/depthwise/depthwise/SpaceToBatchND/block_shape",
          "MobilenetV2/expanded_conv_12/depthwise/depthwise/BatchToSpaceND/crops"
        ],
        "attr": {
          "Tblock_shape": { "type": "DT_INT32" },
          "Tcrops": { "type": "DT_INT32" },
          "T": { "type": "DT_FLOAT" }
        }
      },
      {
        "name": "MobilenetV2/expanded_conv_9/depthwise/BatchNorm/FusedBatchNorm/Mul",
        "op": "Mul",
        "input": [
          "MobilenetV2/expanded_conv_9/depthwise/depthwise/BatchToSpaceND",
          "MobilenetV2/expanded_conv_9/depthwise/BatchNorm/FusedBatchNorm/Scaled"
        ],
        "attr": { "T": { "type": "DT_FLOAT" } }
      },
      {
        "name": "MobilenetV2/expanded_conv_9/depthwise/BatchNorm/FusedBatchNorm",
        "op": "Add",
        "input": [
          "MobilenetV2/expanded_conv_9/depthwise/BatchNorm/FusedBatchNorm/Mul",
          "MobilenetV2/expanded_conv_9/depthwise/BatchNorm/FusedBatchNorm/Offset"
        ],
        "attr": { "T": { "type": "DT_FLOAT" } }
      },
      {
        "name": "MobilenetV2/expanded_conv_9/depthwise/Relu6",
        "op": "Relu6",
        "input": [
          "MobilenetV2/expanded_conv_9/depthwise/BatchNorm/FusedBatchNorm"
        ],
        "attr": { "T": { "type": "DT_FLOAT" } }
      },
      {
        "name": "MobilenetV2/expanded_conv_9/project/BatchNorm/FusedBatchNorm/Mul",
        "op": "Conv2D",
        "input": [
          "MobilenetV2/expanded_conv_9/depthwise/Relu6",
          "MobilenetV2/expanded_conv_9/project/Conv2D/merged_input"
        ],
        "attr": {
          "T": { "type": "DT_FLOAT" },
          "strides": { "list": { "i": ["1", "1", "1", "1"] } },
          "data_format": { "s": "TkhXQw==" },
          "use_cudnn_on_gpu": { "b": true },
          "padding": { "s": "U0FNRQ==" },
          "dilations": { "list": { "i": ["1", "1", "1", "1"] } }
        }
      },
      {
        "name": "MobilenetV2/expanded_conv_9/project/BatchNorm/FusedBatchNorm",
        "op": "Add",
        "input": [
          "MobilenetV2/expanded_conv_9/project/BatchNorm/FusedBatchNorm/Mul",
          "MobilenetV2/expanded_conv_9/project/BatchNorm/FusedBatchNorm/Offset"
        ],
        "attr": { "T": { "type": "DT_FLOAT" } }
      },
      {
        "name": "MobilenetV2/expanded_conv_9/add",
        "op": "Add",
        "input": [
          "MobilenetV2/expanded_conv_9/project/BatchNorm/FusedBatchNorm",
          "MobilenetV2/expanded_conv_8/add"
        ],
        "attr": { "T": { "type": "DT_FLOAT" } }
      },
      {
        "name": "MobilenetV2/expanded_conv_10/expand/BatchNorm/FusedBatchNorm/Mul",
        "op": "Conv2D",
        "input": [
          "MobilenetV2/expanded_conv_9/add",
          "MobilenetV2/expanded_conv_10/expand/Conv2D/merged_input"
        ],
        "attr": {
          "dilations": { "list": { "i": ["1", "1", "1", "1"] } },
          "T": { "type": "DT_FLOAT" },
          "data_format": { "s": "TkhXQw==" },
          "strides": { "list": { "i": ["1", "1", "1", "1"] } },
          "use_cudnn_on_gpu": { "b": true },
          "padding": { "s": "U0FNRQ==" }
        }
      },
      {
        "name": "MobilenetV2/expanded_conv_10/expand/BatchNorm/FusedBatchNorm",
        "op": "Add",
        "input": [
          "MobilenetV2/expanded_conv_10/expand/BatchNorm/FusedBatchNorm/Mul",
          "MobilenetV2/expanded_conv_10/expand/BatchNorm/FusedBatchNorm/Offset"
        ],
        "attr": { "T": { "type": "DT_FLOAT" } }
      },
      {
        "name": "MobilenetV2/expanded_conv_10/expand/Relu6",
        "op": "Relu6",
        "input": [
          "MobilenetV2/expanded_conv_10/expand/BatchNorm/FusedBatchNorm"
        ],
        "attr": { "T": { "type": "DT_FLOAT" } }
      },
      {
        "name": "MobilenetV2/expanded_conv_10/depthwise/depthwise/SpaceToBatchND",
        "op": "SpaceToBatchND",
        "input": [
          "MobilenetV2/expanded_conv_10/expand/Relu6",
          "MobilenetV2/expanded_conv_12/depthwise/depthwise/SpaceToBatchND/block_shape",
          "MobilenetV2/expanded_conv_12/depthwise/depthwise/SpaceToBatchND/paddings"
        ],
        "attr": {
          "T": { "type": "DT_FLOAT" },
          "Tpaddings": { "type": "DT_INT32" },
          "Tblock_shape": { "type": "DT_INT32" }
        }
      },
      {
        "name": "MobilenetV2/expanded_conv_10/depthwise/depthwise",
        "op": "DepthwiseConv2dNative",
        "input": [
          "MobilenetV2/expanded_conv_10/depthwise/depthwise/SpaceToBatchND",
          "MobilenetV2/expanded_conv_10/depthwise/depthwise_weights"
        ],
        "attr": {
          "dilations": { "list": { "i": ["1", "1", "1", "1"] } },
          "padding": { "s": "VkFMSUQ=" },
          "T": { "type": "DT_FLOAT" },
          "data_format": { "s": "TkhXQw==" },
          "strides": { "list": { "i": ["1", "1", "1", "1"] } }
        }
      },
      {
        "name": "MobilenetV2/expanded_conv_10/depthwise/depthwise/BatchToSpaceND",
        "op": "BatchToSpaceND",
        "input": [
          "MobilenetV2/expanded_conv_10/depthwise/depthwise",
          "MobilenetV2/expanded_conv_12/depthwise/depthwise/SpaceToBatchND/block_shape",
          "MobilenetV2/expanded_conv_12/depthwise/depthwise/BatchToSpaceND/crops"
        ],
        "attr": {
          "T": { "type": "DT_FLOAT" },
          "Tblock_shape": { "type": "DT_INT32" },
          "Tcrops": { "type": "DT_INT32" }
        }
      },
      {
        "name": "MobilenetV2/expanded_conv_10/depthwise/BatchNorm/FusedBatchNorm/Mul",
        "op": "Mul",
        "input": [
          "MobilenetV2/expanded_conv_10/depthwise/depthwise/BatchToSpaceND",
          "MobilenetV2/expanded_conv_10/depthwise/BatchNorm/FusedBatchNorm/Scaled"
        ],
        "attr": { "T": { "type": "DT_FLOAT" } }
      },
      {
        "name": "MobilenetV2/expanded_conv_10/depthwise/BatchNorm/FusedBatchNorm",
        "op": "Add",
        "input": [
          "MobilenetV2/expanded_conv_10/depthwise/BatchNorm/FusedBatchNorm/Mul",
          "MobilenetV2/expanded_conv_10/depthwise/BatchNorm/FusedBatchNorm/Offset"
        ],
        "attr": { "T": { "type": "DT_FLOAT" } }
      },
      {
        "name": "MobilenetV2/expanded_conv_10/depthwise/Relu6",
        "op": "Relu6",
        "input": [
          "MobilenetV2/expanded_conv_10/depthwise/BatchNorm/FusedBatchNorm"
        ],
        "attr": { "T": { "type": "DT_FLOAT" } }
      },
      {
        "name": "MobilenetV2/expanded_conv_10/project/BatchNorm/FusedBatchNorm/Mul",
        "op": "Conv2D",
        "input": [
          "MobilenetV2/expanded_conv_10/depthwise/Relu6",
          "MobilenetV2/expanded_conv_10/project/Conv2D/merged_input"
        ],
        "attr": {
          "padding": { "s": "U0FNRQ==" },
          "dilations": { "list": { "i": ["1", "1", "1", "1"] } },
          "T": { "type": "DT_FLOAT" },
          "data_format": { "s": "TkhXQw==" },
          "strides": { "list": { "i": ["1", "1", "1", "1"] } },
          "use_cudnn_on_gpu": { "b": true }
        }
      },
      {
        "name": "MobilenetV2/expanded_conv_10/project/BatchNorm/FusedBatchNorm",
        "op": "Add",
        "input": [
          "MobilenetV2/expanded_conv_10/project/BatchNorm/FusedBatchNorm/Mul",
          "MobilenetV2/expanded_conv_10/project/BatchNorm/FusedBatchNorm/Offset"
        ],
        "attr": { "T": { "type": "DT_FLOAT" } }
      },
      {
        "name": "MobilenetV2/expanded_conv_11/expand/BatchNorm/FusedBatchNorm/Mul",
        "op": "Conv2D",
        "input": [
          "MobilenetV2/expanded_conv_10/project/BatchNorm/FusedBatchNorm",
          "MobilenetV2/expanded_conv_11/expand/Conv2D/merged_input"
        ],
        "attr": {
          "dilations": { "list": { "i": ["1", "1", "1", "1"] } },
          "T": { "type": "DT_FLOAT" },
          "strides": { "list": { "i": ["1", "1", "1", "1"] } },
          "data_format": { "s": "TkhXQw==" },
          "use_cudnn_on_gpu": { "b": true },
          "padding": { "s": "U0FNRQ==" }
        }
      },
      {
        "name": "MobilenetV2/expanded_conv_11/expand/BatchNorm/FusedBatchNorm",
        "op": "Add",
        "input": [
          "MobilenetV2/expanded_conv_11/expand/BatchNorm/FusedBatchNorm/Mul",
          "MobilenetV2/expanded_conv_11/expand/BatchNorm/FusedBatchNorm/Offset"
        ],
        "attr": { "T": { "type": "DT_FLOAT" } }
      },
      {
        "name": "MobilenetV2/expanded_conv_11/expand/Relu6",
        "op": "Relu6",
        "input": [
          "MobilenetV2/expanded_conv_11/expand/BatchNorm/FusedBatchNorm"
        ],
        "attr": { "T": { "type": "DT_FLOAT" } }
      },
      {
        "name": "MobilenetV2/expanded_conv_11/depthwise/depthwise/SpaceToBatchND",
        "op": "SpaceToBatchND",
        "input": [
          "MobilenetV2/expanded_conv_11/expand/Relu6",
          "MobilenetV2/expanded_conv_12/depthwise/depthwise/SpaceToBatchND/block_shape",
          "MobilenetV2/expanded_conv_12/depthwise/depthwise/SpaceToBatchND/paddings"
        ],
        "attr": {
          "T": { "type": "DT_FLOAT" },
          "Tpaddings": { "type": "DT_INT32" },
          "Tblock_shape": { "type": "DT_INT32" }
        }
      },
      {
        "name": "MobilenetV2/expanded_conv_11/depthwise/depthwise",
        "op": "DepthwiseConv2dNative",
        "input": [
          "MobilenetV2/expanded_conv_11/depthwise/depthwise/SpaceToBatchND",
          "MobilenetV2/expanded_conv_11/depthwise/depthwise_weights"
        ],
        "attr": {
          "T": { "type": "DT_FLOAT" },
          "data_format": { "s": "TkhXQw==" },
          "strides": { "list": { "i": ["1", "1", "1", "1"] } },
          "padding": { "s": "VkFMSUQ=" },
          "dilations": { "list": { "i": ["1", "1", "1", "1"] } }
        }
      },
      {
        "name": "MobilenetV2/expanded_conv_11/depthwise/depthwise/BatchToSpaceND",
        "op": "BatchToSpaceND",
        "input": [
          "MobilenetV2/expanded_conv_11/depthwise/depthwise",
          "MobilenetV2/expanded_conv_12/depthwise/depthwise/SpaceToBatchND/block_shape",
          "MobilenetV2/expanded_conv_12/depthwise/depthwise/BatchToSpaceND/crops"
        ],
        "attr": {
          "Tcrops": { "type": "DT_INT32" },
          "T": { "type": "DT_FLOAT" },
          "Tblock_shape": { "type": "DT_INT32" }
        }
      },
      {
        "name": "MobilenetV2/expanded_conv_11/depthwise/BatchNorm/FusedBatchNorm/Mul",
        "op": "Mul",
        "input": [
          "MobilenetV2/expanded_conv_11/depthwise/depthwise/BatchToSpaceND",
          "MobilenetV2/expanded_conv_11/depthwise/BatchNorm/FusedBatchNorm/Scaled"
        ],
        "attr": { "T": { "type": "DT_FLOAT" } }
      },
      {
        "name": "MobilenetV2/expanded_conv_11/depthwise/BatchNorm/FusedBatchNorm",
        "op": "Add",
        "input": [
          "MobilenetV2/expanded_conv_11/depthwise/BatchNorm/FusedBatchNorm/Mul",
          "MobilenetV2/expanded_conv_11/depthwise/BatchNorm/FusedBatchNorm/Offset"
        ],
        "attr": { "T": { "type": "DT_FLOAT" } }
      },
      {
        "name": "MobilenetV2/expanded_conv_11/depthwise/Relu6",
        "op": "Relu6",
        "input": [
          "MobilenetV2/expanded_conv_11/depthwise/BatchNorm/FusedBatchNorm"
        ],
        "attr": { "T": { "type": "DT_FLOAT" } }
      },
      {
        "name": "MobilenetV2/expanded_conv_11/project/BatchNorm/FusedBatchNorm/Mul",
        "op": "Conv2D",
        "input": [
          "MobilenetV2/expanded_conv_11/depthwise/Relu6",
          "MobilenetV2/expanded_conv_11/project/Conv2D/merged_input"
        ],
        "attr": {
          "padding": { "s": "U0FNRQ==" },
          "dilations": { "list": { "i": ["1", "1", "1", "1"] } },
          "T": { "type": "DT_FLOAT" },
          "data_format": { "s": "TkhXQw==" },
          "strides": { "list": { "i": ["1", "1", "1", "1"] } },
          "use_cudnn_on_gpu": { "b": true }
        }
      },
      {
        "name": "MobilenetV2/expanded_conv_11/project/BatchNorm/FusedBatchNorm",
        "op": "Add",
        "input": [
          "MobilenetV2/expanded_conv_11/project/BatchNorm/FusedBatchNorm/Mul",
          "MobilenetV2/expanded_conv_11/project/BatchNorm/FusedBatchNorm/Offset"
        ],
        "attr": { "T": { "type": "DT_FLOAT" } }
      },
      {
        "name": "MobilenetV2/expanded_conv_11/add",
        "op": "Add",
        "input": [
          "MobilenetV2/expanded_conv_11/project/BatchNorm/FusedBatchNorm",
          "MobilenetV2/expanded_conv_10/project/BatchNorm/FusedBatchNorm"
        ],
        "attr": { "T": { "type": "DT_FLOAT" } }
      },
      {
        "name": "MobilenetV2/expanded_conv_12/expand/BatchNorm/FusedBatchNorm/Mul",
        "op": "Conv2D",
        "input": [
          "MobilenetV2/expanded_conv_11/add",
          "MobilenetV2/expanded_conv_12/expand/Conv2D/merged_input"
        ],
        "attr": {
          "strides": { "list": { "i": ["1", "1", "1", "1"] } },
          "data_format": { "s": "TkhXQw==" },
          "use_cudnn_on_gpu": { "b": true },
          "padding": { "s": "U0FNRQ==" },
          "dilations": { "list": { "i": ["1", "1", "1", "1"] } },
          "T": { "type": "DT_FLOAT" }
        }
      },
      {
        "name": "MobilenetV2/expanded_conv_12/expand/BatchNorm/FusedBatchNorm",
        "op": "Add",
        "input": [
          "MobilenetV2/expanded_conv_12/expand/BatchNorm/FusedBatchNorm/Mul",
          "MobilenetV2/expanded_conv_12/expand/BatchNorm/FusedBatchNorm/Offset"
        ],
        "attr": { "T": { "type": "DT_FLOAT" } }
      },
      {
        "name": "MobilenetV2/expanded_conv_12/expand/Relu6",
        "op": "Relu6",
        "input": [
          "MobilenetV2/expanded_conv_12/expand/BatchNorm/FusedBatchNorm"
        ],
        "attr": { "T": { "type": "DT_FLOAT" } }
      },
      {
        "name": "MobilenetV2/expanded_conv_12/depthwise/depthwise/SpaceToBatchND",
        "op": "SpaceToBatchND",
        "input": [
          "MobilenetV2/expanded_conv_12/expand/Relu6",
          "MobilenetV2/expanded_conv_12/depthwise/depthwise/SpaceToBatchND/block_shape",
          "MobilenetV2/expanded_conv_12/depthwise/depthwise/SpaceToBatchND/paddings"
        ],
        "attr": {
          "Tpaddings": { "type": "DT_INT32" },
          "Tblock_shape": { "type": "DT_INT32" },
          "T": { "type": "DT_FLOAT" }
        }
      },
      {
        "name": "MobilenetV2/expanded_conv_12/depthwise/depthwise",
        "op": "DepthwiseConv2dNative",
        "input": [
          "MobilenetV2/expanded_conv_12/depthwise/depthwise/SpaceToBatchND",
          "MobilenetV2/expanded_conv_12/depthwise/depthwise_weights"
        ],
        "attr": {
          "dilations": { "list": { "i": ["1", "1", "1", "1"] } },
          "padding": { "s": "VkFMSUQ=" },
          "T": { "type": "DT_FLOAT" },
          "data_format": { "s": "TkhXQw==" },
          "strides": { "list": { "i": ["1", "1", "1", "1"] } }
        }
      },
      {
        "name": "MobilenetV2/expanded_conv_12/depthwise/depthwise/BatchToSpaceND",
        "op": "BatchToSpaceND",
        "input": [
          "MobilenetV2/expanded_conv_12/depthwise/depthwise",
          "MobilenetV2/expanded_conv_12/depthwise/depthwise/SpaceToBatchND/block_shape",
          "MobilenetV2/expanded_conv_12/depthwise/depthwise/BatchToSpaceND/crops"
        ],
        "attr": {
          "Tcrops": { "type": "DT_INT32" },
          "T": { "type": "DT_FLOAT" },
          "Tblock_shape": { "type": "DT_INT32" }
        }
      },
      {
        "name": "MobilenetV2/expanded_conv_12/depthwise/BatchNorm/FusedBatchNorm/Mul",
        "op": "Mul",
        "input": [
          "MobilenetV2/expanded_conv_12/depthwise/depthwise/BatchToSpaceND",
          "MobilenetV2/expanded_conv_12/depthwise/BatchNorm/FusedBatchNorm/Scaled"
        ],
        "attr": { "T": { "type": "DT_FLOAT" } }
      },
      {
        "name": "MobilenetV2/expanded_conv_12/depthwise/BatchNorm/FusedBatchNorm",
        "op": "Add",
        "input": [
          "MobilenetV2/expanded_conv_12/depthwise/BatchNorm/FusedBatchNorm/Mul",
          "MobilenetV2/expanded_conv_12/depthwise/BatchNorm/FusedBatchNorm/Offset"
        ],
        "attr": { "T": { "type": "DT_FLOAT" } }
      },
      {
        "name": "MobilenetV2/expanded_conv_12/depthwise/Relu6",
        "op": "Relu6",
        "input": [
          "MobilenetV2/expanded_conv_12/depthwise/BatchNorm/FusedBatchNorm"
        ],
        "attr": { "T": { "type": "DT_FLOAT" } }
      },
      {
        "name": "MobilenetV2/expanded_conv_12/project/BatchNorm/FusedBatchNorm/Mul",
        "op": "Conv2D",
        "input": [
          "MobilenetV2/expanded_conv_12/depthwise/Relu6",
          "MobilenetV2/expanded_conv_12/project/Conv2D/merged_input"
        ],
        "attr": {
          "dilations": { "list": { "i": ["1", "1", "1", "1"] } },
          "T": { "type": "DT_FLOAT" },
          "strides": { "list": { "i": ["1", "1", "1", "1"] } },
          "data_format": { "s": "TkhXQw==" },
          "use_cudnn_on_gpu": { "b": true },
          "padding": { "s": "U0FNRQ==" }
        }
      },
      {
        "name": "MobilenetV2/expanded_conv_12/project/BatchNorm/FusedBatchNorm",
        "op": "Add",
        "input": [
          "MobilenetV2/expanded_conv_12/project/BatchNorm/FusedBatchNorm/Mul",
          "MobilenetV2/expanded_conv_12/project/BatchNorm/FusedBatchNorm/Offset"
        ],
        "attr": { "T": { "type": "DT_FLOAT" } }
      },
      {
        "name": "MobilenetV2/expanded_conv_12/add",
        "op": "Add",
        "input": [
          "MobilenetV2/expanded_conv_12/project/BatchNorm/FusedBatchNorm",
          "MobilenetV2/expanded_conv_11/add"
        ],
        "attr": { "T": { "type": "DT_FLOAT" } }
      },
      {
        "name": "MobilenetV2/expanded_conv_13/expand/BatchNorm/FusedBatchNorm/Mul",
        "op": "Conv2D",
        "input": [
          "MobilenetV2/expanded_conv_12/add",
          "MobilenetV2/expanded_conv_13/expand/Conv2D/merged_input"
        ],
        "attr": {
          "padding": { "s": "U0FNRQ==" },
          "dilations": { "list": { "i": ["1", "1", "1", "1"] } },
          "T": { "type": "DT_FLOAT" },
          "strides": { "list": { "i": ["1", "1", "1", "1"] } },
          "data_format": { "s": "TkhXQw==" },
          "use_cudnn_on_gpu": { "b": true }
        }
      },
      {
        "name": "MobilenetV2/expanded_conv_13/expand/BatchNorm/FusedBatchNorm",
        "op": "Add",
        "input": [
          "MobilenetV2/expanded_conv_13/expand/BatchNorm/FusedBatchNorm/Mul",
          "MobilenetV2/expanded_conv_13/expand/BatchNorm/FusedBatchNorm/Offset"
        ],
        "attr": { "T": { "type": "DT_FLOAT" } }
      },
      {
        "name": "MobilenetV2/expanded_conv_13/expand/Relu6",
        "op": "Relu6",
        "input": [
          "MobilenetV2/expanded_conv_13/expand/BatchNorm/FusedBatchNorm"
        ],
        "attr": { "T": { "type": "DT_FLOAT" } }
      },
      {
        "name": "MobilenetV2/expanded_conv_13/depthwise/depthwise/SpaceToBatchND",
        "op": "SpaceToBatchND",
        "input": [
          "MobilenetV2/expanded_conv_13/expand/Relu6",
          "MobilenetV2/expanded_conv_12/depthwise/depthwise/SpaceToBatchND/block_shape",
          "MobilenetV2/expanded_conv_12/depthwise/depthwise/SpaceToBatchND/paddings"
        ],
        "attr": {
          "T": { "type": "DT_FLOAT" },
          "Tpaddings": { "type": "DT_INT32" },
          "Tblock_shape": { "type": "DT_INT32" }
        }
      },
      {
        "name": "MobilenetV2/expanded_conv_13/depthwise/depthwise",
        "op": "DepthwiseConv2dNative",
        "input": [
          "MobilenetV2/expanded_conv_13/depthwise/depthwise/SpaceToBatchND",
          "MobilenetV2/expanded_conv_13/depthwise/depthwise_weights"
        ],
        "attr": {
          "T": { "type": "DT_FLOAT" },
          "data_format": { "s": "TkhXQw==" },
          "strides": { "list": { "i": ["1", "1", "1", "1"] } },
          "padding": { "s": "VkFMSUQ=" },
          "dilations": { "list": { "i": ["1", "1", "1", "1"] } }
        }
      },
      {
        "name": "MobilenetV2/expanded_conv_13/depthwise/depthwise/BatchToSpaceND",
        "op": "BatchToSpaceND",
        "input": [
          "MobilenetV2/expanded_conv_13/depthwise/depthwise",
          "MobilenetV2/expanded_conv_12/depthwise/depthwise/SpaceToBatchND/block_shape",
          "MobilenetV2/expanded_conv_12/depthwise/depthwise/BatchToSpaceND/crops"
        ],
        "attr": {
          "Tcrops": { "type": "DT_INT32" },
          "T": { "type": "DT_FLOAT" },
          "Tblock_shape": { "type": "DT_INT32" }
        }
      },
      {
        "name": "MobilenetV2/expanded_conv_13/depthwise/BatchNorm/FusedBatchNorm/Mul",
        "op": "Mul",
        "input": [
          "MobilenetV2/expanded_conv_13/depthwise/depthwise/BatchToSpaceND",
          "MobilenetV2/expanded_conv_13/depthwise/BatchNorm/FusedBatchNorm/Scaled"
        ],
        "attr": { "T": { "type": "DT_FLOAT" } }
      },
      {
        "name": "MobilenetV2/expanded_conv_13/depthwise/BatchNorm/FusedBatchNorm",
        "op": "Add",
        "input": [
          "MobilenetV2/expanded_conv_13/depthwise/BatchNorm/FusedBatchNorm/Mul",
          "MobilenetV2/expanded_conv_13/depthwise/BatchNorm/FusedBatchNorm/Offset"
        ],
        "attr": { "T": { "type": "DT_FLOAT" } }
      },
      {
        "name": "MobilenetV2/expanded_conv_13/depthwise/Relu6",
        "op": "Relu6",
        "input": [
          "MobilenetV2/expanded_conv_13/depthwise/BatchNorm/FusedBatchNorm"
        ],
        "attr": { "T": { "type": "DT_FLOAT" } }
      },
      {
        "name": "MobilenetV2/expanded_conv_13/project/BatchNorm/FusedBatchNorm/Mul",
        "op": "Conv2D",
        "input": [
          "MobilenetV2/expanded_conv_13/depthwise/Relu6",
          "MobilenetV2/expanded_conv_13/project/Conv2D/merged_input"
        ],
        "attr": {
          "dilations": { "list": { "i": ["1", "1", "1", "1"] } },
          "T": { "type": "DT_FLOAT" },
          "data_format": { "s": "TkhXQw==" },
          "strides": { "list": { "i": ["1", "1", "1", "1"] } },
          "use_cudnn_on_gpu": { "b": true },
          "padding": { "s": "U0FNRQ==" }
        }
      },
      {
        "name": "MobilenetV2/expanded_conv_13/project/BatchNorm/FusedBatchNorm",
        "op": "Add",
        "input": [
          "MobilenetV2/expanded_conv_13/project/BatchNorm/FusedBatchNorm/Mul",
          "MobilenetV2/expanded_conv_13/project/BatchNorm/FusedBatchNorm/Offset"
        ],
        "attr": { "T": { "type": "DT_FLOAT" } }
      },
      {
        "name": "MobilenetV2/expanded_conv_14/expand/BatchNorm/FusedBatchNorm/Mul",
        "op": "Conv2D",
        "input": [
          "MobilenetV2/expanded_conv_13/project/BatchNorm/FusedBatchNorm",
          "MobilenetV2/expanded_conv_14/expand/Conv2D/merged_input"
        ],
        "attr": {
          "dilations": { "list": { "i": ["1", "1", "1", "1"] } },
          "T": { "type": "DT_FLOAT" },
          "strides": { "list": { "i": ["1", "1", "1", "1"] } },
          "data_format": { "s": "TkhXQw==" },
          "use_cudnn_on_gpu": { "b": true },
          "padding": { "s": "U0FNRQ==" }
        }
      },
      {
        "name": "MobilenetV2/expanded_conv_14/expand/BatchNorm/FusedBatchNorm",
        "op": "Add",
        "input": [
          "MobilenetV2/expanded_conv_14/expand/BatchNorm/FusedBatchNorm/Mul",
          "MobilenetV2/expanded_conv_14/expand/BatchNorm/FusedBatchNorm/Offset"
        ],
        "attr": { "T": { "type": "DT_FLOAT" } }
      },
      {
        "name": "MobilenetV2/expanded_conv_14/expand/Relu6",
        "op": "Relu6",
        "input": [
          "MobilenetV2/expanded_conv_14/expand/BatchNorm/FusedBatchNorm"
        ],
        "attr": { "T": { "type": "DT_FLOAT" } }
      },
      {
        "name": "MobilenetV2/expanded_conv_14/depthwise/depthwise/SpaceToBatchND",
        "op": "SpaceToBatchND",
        "input": [
          "MobilenetV2/expanded_conv_14/expand/Relu6",
          "MobilenetV2/expanded_conv_15/depthwise/depthwise/SpaceToBatchND/block_shape",
          "MobilenetV2/expanded_conv_15/depthwise/depthwise/SpaceToBatchND/paddings"
        ],
        "attr": {
          "Tblock_shape": { "type": "DT_INT32" },
          "T": { "type": "DT_FLOAT" },
          "Tpaddings": { "type": "DT_INT32" }
        }
      },
      {
        "name": "MobilenetV2/expanded_conv_14/depthwise/depthwise",
        "op": "DepthwiseConv2dNative",
        "input": [
          "MobilenetV2/expanded_conv_14/depthwise/depthwise/SpaceToBatchND",
          "MobilenetV2/expanded_conv_14/depthwise/depthwise_weights"
        ],
        "attr": {
          "strides": { "list": { "i": ["1", "1", "1", "1"] } },
          "data_format": { "s": "TkhXQw==" },
          "dilations": { "list": { "i": ["1", "1", "1", "1"] } },
          "padding": { "s": "VkFMSUQ=" },
          "T": { "type": "DT_FLOAT" }
        }
      },
      {
        "name": "MobilenetV2/expanded_conv_14/depthwise/depthwise/BatchToSpaceND",
        "op": "BatchToSpaceND",
        "input": [
          "MobilenetV2/expanded_conv_14/depthwise/depthwise",
          "MobilenetV2/expanded_conv_15/depthwise/depthwise/SpaceToBatchND/block_shape",
          "MobilenetV2/expanded_conv_15/depthwise/depthwise/BatchToSpaceND/crops"
        ],
        "attr": {
          "Tcrops": { "type": "DT_INT32" },
          "T": { "type": "DT_FLOAT" },
          "Tblock_shape": { "type": "DT_INT32" }
        }
      },
      {
        "name": "MobilenetV2/expanded_conv_14/depthwise/BatchNorm/FusedBatchNorm/Mul",
        "op": "Mul",
        "input": [
          "MobilenetV2/expanded_conv_14/depthwise/depthwise/BatchToSpaceND",
          "MobilenetV2/expanded_conv_14/depthwise/BatchNorm/FusedBatchNorm/Scaled"
        ],
        "attr": { "T": { "type": "DT_FLOAT" } }
      },
      {
        "name": "MobilenetV2/expanded_conv_14/depthwise/BatchNorm/FusedBatchNorm",
        "op": "Add",
        "input": [
          "MobilenetV2/expanded_conv_14/depthwise/BatchNorm/FusedBatchNorm/Mul",
          "MobilenetV2/expanded_conv_14/depthwise/BatchNorm/FusedBatchNorm/Offset"
        ],
        "attr": { "T": { "type": "DT_FLOAT" } }
      },
      {
        "name": "MobilenetV2/expanded_conv_14/depthwise/Relu6",
        "op": "Relu6",
        "input": [
          "MobilenetV2/expanded_conv_14/depthwise/BatchNorm/FusedBatchNorm"
        ],
        "attr": { "T": { "type": "DT_FLOAT" } }
      },
      {
        "name": "MobilenetV2/expanded_conv_14/project/BatchNorm/FusedBatchNorm/Mul",
        "op": "Conv2D",
        "input": [
          "MobilenetV2/expanded_conv_14/depthwise/Relu6",
          "MobilenetV2/expanded_conv_14/project/Conv2D/merged_input"
        ],
        "attr": {
          "padding": { "s": "U0FNRQ==" },
          "dilations": { "list": { "i": ["1", "1", "1", "1"] } },
          "T": { "type": "DT_FLOAT" },
          "strides": { "list": { "i": ["1", "1", "1", "1"] } },
          "data_format": { "s": "TkhXQw==" },
          "use_cudnn_on_gpu": { "b": true }
        }
      },
      {
        "name": "MobilenetV2/expanded_conv_14/project/BatchNorm/FusedBatchNorm",
        "op": "Add",
        "input": [
          "MobilenetV2/expanded_conv_14/project/BatchNorm/FusedBatchNorm/Mul",
          "MobilenetV2/expanded_conv_14/project/BatchNorm/FusedBatchNorm/Offset"
        ],
        "attr": { "T": { "type": "DT_FLOAT" } }
      },
      {
        "name": "MobilenetV2/expanded_conv_14/add",
        "op": "Add",
        "input": [
          "MobilenetV2/expanded_conv_14/project/BatchNorm/FusedBatchNorm",
          "MobilenetV2/expanded_conv_13/project/BatchNorm/FusedBatchNorm"
        ],
        "attr": { "T": { "type": "DT_FLOAT" } }
      },
      {
        "name": "MobilenetV2/expanded_conv_15/expand/BatchNorm/FusedBatchNorm/Mul",
        "op": "Conv2D",
        "input": [
          "MobilenetV2/expanded_conv_14/add",
          "MobilenetV2/expanded_conv_15/expand/Conv2D/merged_input"
        ],
        "attr": {
          "dilations": { "list": { "i": ["1", "1", "1", "1"] } },
          "T": { "type": "DT_FLOAT" },
          "data_format": { "s": "TkhXQw==" },
          "strides": { "list": { "i": ["1", "1", "1", "1"] } },
          "use_cudnn_on_gpu": { "b": true },
          "padding": { "s": "U0FNRQ==" }
        }
      },
      {
        "name": "MobilenetV2/expanded_conv_15/expand/BatchNorm/FusedBatchNorm",
        "op": "Add",
        "input": [
          "MobilenetV2/expanded_conv_15/expand/BatchNorm/FusedBatchNorm/Mul",
          "MobilenetV2/expanded_conv_15/expand/BatchNorm/FusedBatchNorm/Offset"
        ],
        "attr": { "T": { "type": "DT_FLOAT" } }
      },
      {
        "name": "MobilenetV2/expanded_conv_15/expand/Relu6",
        "op": "Relu6",
        "input": [
          "MobilenetV2/expanded_conv_15/expand/BatchNorm/FusedBatchNorm"
        ],
        "attr": { "T": { "type": "DT_FLOAT" } }
      },
      {
        "name": "MobilenetV2/expanded_conv_15/depthwise/depthwise/SpaceToBatchND",
        "op": "SpaceToBatchND",
        "input": [
          "MobilenetV2/expanded_conv_15/expand/Relu6",
          "MobilenetV2/expanded_conv_15/depthwise/depthwise/SpaceToBatchND/block_shape",
          "MobilenetV2/expanded_conv_15/depthwise/depthwise/SpaceToBatchND/paddings"
        ],
        "attr": {
          "Tpaddings": { "type": "DT_INT32" },
          "Tblock_shape": { "type": "DT_INT32" },
          "T": { "type": "DT_FLOAT" }
        }
      },
      {
        "name": "MobilenetV2/expanded_conv_15/depthwise/depthwise",
        "op": "DepthwiseConv2dNative",
        "input": [
          "MobilenetV2/expanded_conv_15/depthwise/depthwise/SpaceToBatchND",
          "MobilenetV2/expanded_conv_15/depthwise/depthwise_weights"
        ],
        "attr": {
          "dilations": { "list": { "i": ["1", "1", "1", "1"] } },
          "padding": { "s": "VkFMSUQ=" },
          "T": { "type": "DT_FLOAT" },
          "data_format": { "s": "TkhXQw==" },
          "strides": { "list": { "i": ["1", "1", "1", "1"] } }
        }
      },
      {
        "name": "MobilenetV2/expanded_conv_15/depthwise/depthwise/BatchToSpaceND",
        "op": "BatchToSpaceND",
        "input": [
          "MobilenetV2/expanded_conv_15/depthwise/depthwise",
          "MobilenetV2/expanded_conv_15/depthwise/depthwise/SpaceToBatchND/block_shape",
          "MobilenetV2/expanded_conv_15/depthwise/depthwise/BatchToSpaceND/crops"
        ],
        "attr": {
          "Tcrops": { "type": "DT_INT32" },
          "T": { "type": "DT_FLOAT" },
          "Tblock_shape": { "type": "DT_INT32" }
        }
      },
      {
        "name": "MobilenetV2/expanded_conv_15/depthwise/BatchNorm/FusedBatchNorm/Mul",
        "op": "Mul",
        "input": [
          "MobilenetV2/expanded_conv_15/depthwise/depthwise/BatchToSpaceND",
          "MobilenetV2/expanded_conv_15/depthwise/BatchNorm/FusedBatchNorm/Scaled"
        ],
        "attr": { "T": { "type": "DT_FLOAT" } }
      },
      {
        "name": "MobilenetV2/expanded_conv_15/depthwise/BatchNorm/FusedBatchNorm",
        "op": "Add",
        "input": [
          "MobilenetV2/expanded_conv_15/depthwise/BatchNorm/FusedBatchNorm/Mul",
          "MobilenetV2/expanded_conv_15/depthwise/BatchNorm/FusedBatchNorm/Offset"
        ],
        "attr": { "T": { "type": "DT_FLOAT" } }
      },
      {
        "name": "MobilenetV2/expanded_conv_15/depthwise/Relu6",
        "op": "Relu6",
        "input": [
          "MobilenetV2/expanded_conv_15/depthwise/BatchNorm/FusedBatchNorm"
        ],
        "attr": { "T": { "type": "DT_FLOAT" } }
      },
      {
        "name": "MobilenetV2/expanded_conv_15/project/BatchNorm/FusedBatchNorm/Mul",
        "op": "Conv2D",
        "input": [
          "MobilenetV2/expanded_conv_15/depthwise/Relu6",
          "MobilenetV2/expanded_conv_15/project/Conv2D/merged_input"
        ],
        "attr": {
          "dilations": { "list": { "i": ["1", "1", "1", "1"] } },
          "T": { "type": "DT_FLOAT" },
          "data_format": { "s": "TkhXQw==" },
          "strides": { "list": { "i": ["1", "1", "1", "1"] } },
          "use_cudnn_on_gpu": { "b": true },
          "padding": { "s": "U0FNRQ==" }
        }
      },
      {
        "name": "MobilenetV2/expanded_conv_15/project/BatchNorm/FusedBatchNorm",
        "op": "Add",
        "input": [
          "MobilenetV2/expanded_conv_15/project/BatchNorm/FusedBatchNorm/Mul",
          "MobilenetV2/expanded_conv_15/project/BatchNorm/FusedBatchNorm/Offset"
        ],
        "attr": { "T": { "type": "DT_FLOAT" } }
      },
      {
        "name": "MobilenetV2/expanded_conv_15/add",
        "op": "Add",
        "input": [
          "MobilenetV2/expanded_conv_15/project/BatchNorm/FusedBatchNorm",
          "MobilenetV2/expanded_conv_14/add"
        ],
        "attr": { "T": { "type": "DT_FLOAT" } }
      },
      {
        "name": "MobilenetV2/expanded_conv_16/expand/BatchNorm/FusedBatchNorm/Mul",
        "op": "Conv2D",
        "input": [
          "MobilenetV2/expanded_conv_15/add",
          "MobilenetV2/expanded_conv_16/expand/Conv2D/merged_input"
        ],
        "attr": {
          "dilations": { "list": { "i": ["1", "1", "1", "1"] } },
          "T": { "type": "DT_FLOAT" },
          "strides": { "list": { "i": ["1", "1", "1", "1"] } },
          "data_format": { "s": "TkhXQw==" },
          "use_cudnn_on_gpu": { "b": true },
          "padding": { "s": "U0FNRQ==" }
        }
      },
      {
        "name": "MobilenetV2/expanded_conv_16/expand/BatchNorm/FusedBatchNorm",
        "op": "Add",
        "input": [
          "MobilenetV2/expanded_conv_16/expand/BatchNorm/FusedBatchNorm/Mul",
          "MobilenetV2/expanded_conv_16/expand/BatchNorm/FusedBatchNorm/Offset"
        ],
        "attr": { "T": { "type": "DT_FLOAT" } }
      },
      {
        "name": "MobilenetV2/expanded_conv_16/expand/Relu6",
        "op": "Relu6",
        "input": [
          "MobilenetV2/expanded_conv_16/expand/BatchNorm/FusedBatchNorm"
        ],
        "attr": { "T": { "type": "DT_FLOAT" } }
      },
      {
        "name": "MobilenetV2/expanded_conv_16/depthwise/depthwise/SpaceToBatchND",
        "op": "SpaceToBatchND",
        "input": [
          "MobilenetV2/expanded_conv_16/expand/Relu6",
          "MobilenetV2/expanded_conv_15/depthwise/depthwise/SpaceToBatchND/block_shape",
          "MobilenetV2/expanded_conv_15/depthwise/depthwise/SpaceToBatchND/paddings"
        ],
        "attr": {
          "Tpaddings": { "type": "DT_INT32" },
          "Tblock_shape": { "type": "DT_INT32" },
          "T": { "type": "DT_FLOAT" }
        }
      },
      {
        "name": "MobilenetV2/expanded_conv_16/depthwise/depthwise",
        "op": "DepthwiseConv2dNative",
        "input": [
          "MobilenetV2/expanded_conv_16/depthwise/depthwise/SpaceToBatchND",
          "MobilenetV2/expanded_conv_16/depthwise/depthwise_weights"
        ],
        "attr": {
          "dilations": { "list": { "i": ["1", "1", "1", "1"] } },
          "padding": { "s": "VkFMSUQ=" },
          "T": { "type": "DT_FLOAT" },
          "data_format": { "s": "TkhXQw==" },
          "strides": { "list": { "i": ["1", "1", "1", "1"] } }
        }
      },
      {
        "name": "MobilenetV2/expanded_conv_16/depthwise/depthwise/BatchToSpaceND",
        "op": "BatchToSpaceND",
        "input": [
          "MobilenetV2/expanded_conv_16/depthwise/depthwise",
          "MobilenetV2/expanded_conv_15/depthwise/depthwise/SpaceToBatchND/block_shape",
          "MobilenetV2/expanded_conv_15/depthwise/depthwise/BatchToSpaceND/crops"
        ],
        "attr": {
          "Tcrops": { "type": "DT_INT32" },
          "T": { "type": "DT_FLOAT" },
          "Tblock_shape": { "type": "DT_INT32" }
        }
      },
      {
        "name": "MobilenetV2/expanded_conv_16/depthwise/BatchNorm/FusedBatchNorm/Mul",
        "op": "Mul",
        "input": [
          "MobilenetV2/expanded_conv_16/depthwise/depthwise/BatchToSpaceND",
          "MobilenetV2/expanded_conv_16/depthwise/BatchNorm/FusedBatchNorm/Scaled"
        ],
        "attr": { "T": { "type": "DT_FLOAT" } }
      },
      {
        "name": "MobilenetV2/expanded_conv_16/depthwise/BatchNorm/FusedBatchNorm",
        "op": "Add",
        "input": [
          "MobilenetV2/expanded_conv_16/depthwise/BatchNorm/FusedBatchNorm/Mul",
          "MobilenetV2/expanded_conv_16/depthwise/BatchNorm/FusedBatchNorm/Offset"
        ],
        "attr": { "T": { "type": "DT_FLOAT" } }
      },
      {
        "name": "MobilenetV2/expanded_conv_16/depthwise/Relu6",
        "op": "Relu6",
        "input": [
          "MobilenetV2/expanded_conv_16/depthwise/BatchNorm/FusedBatchNorm"
        ],
        "attr": { "T": { "type": "DT_FLOAT" } }
      },
      {
        "name": "MobilenetV2/expanded_conv_16/project/BatchNorm/FusedBatchNorm/Mul",
        "op": "Conv2D",
        "input": [
          "MobilenetV2/expanded_conv_16/depthwise/Relu6",
          "MobilenetV2/expanded_conv_16/project/Conv2D/merged_input"
        ],
        "attr": {
          "dilations": { "list": { "i": ["1", "1", "1", "1"] } },
          "T": { "type": "DT_FLOAT" },
          "data_format": { "s": "TkhXQw==" },
          "strides": { "list": { "i": ["1", "1", "1", "1"] } },
          "use_cudnn_on_gpu": { "b": true },
          "padding": { "s": "U0FNRQ==" }
        }
      },
      {
        "name": "MobilenetV2/expanded_conv_16/project/BatchNorm/FusedBatchNorm",
        "op": "Add",
        "input": [
          "MobilenetV2/expanded_conv_16/project/BatchNorm/FusedBatchNorm/Mul",
          "MobilenetV2/expanded_conv_16/project/BatchNorm/FusedBatchNorm/Offset"
        ],
        "attr": { "T": { "type": "DT_FLOAT" } }
      },
      {
        "name": "aspp0/BatchNorm/FusedBatchNorm/Mul",
        "op": "Conv2D",
        "input": [
          "MobilenetV2/expanded_conv_16/project/BatchNorm/FusedBatchNorm",
          "aspp0/Conv2D/merged_input"
        ],
        "attr": {
          "data_format": { "s": "TkhXQw==" },
          "strides": { "list": { "i": ["1", "1", "1", "1"] } },
          "use_cudnn_on_gpu": { "b": true },
          "padding": { "s": "U0FNRQ==" },
          "dilations": { "list": { "i": ["1", "1", "1", "1"] } },
          "T": { "type": "DT_FLOAT" }
        }
      },
      {
        "name": "AvgPool2D/AvgPool",
        "op": "AvgPool",
        "input": [
          "MobilenetV2/expanded_conv_16/project/BatchNorm/FusedBatchNorm"
        ],
        "attr": {
          "data_format": { "s": "TkhXQw==" },
          "strides": { "list": { "i": ["1", "1", "1", "1"] } },
          "ksize": { "list": { "i": ["1", "65", "65", "1"] } },
          "padding": { "s": "VkFMSUQ=" },
          "T": { "type": "DT_FLOAT" }
        }
      },
      {
        "name": "aspp0/BatchNorm/FusedBatchNorm",
        "op": "Add",
        "input": [
          "aspp0/BatchNorm/FusedBatchNorm/Mul",
          "aspp0/BatchNorm/FusedBatchNorm/Offset"
        ],
        "attr": { "T": { "type": "DT_FLOAT" } }
      },
      {
        "name": "image_pooling/BatchNorm/FusedBatchNorm/Mul",
…
        "input": ["AvgPool2D/AvgPool", "image_pooling/Conv2D/merged_input"],
        "attr": {
          "padding": { "s": "U0FNRQ==" },
          "dilations": { "list": { "i": ["1", "1", "1", "1"] } },
          "T": { "type": "DT_FLOAT" },
          "data_format": { "s": "TkhXQw==" },
          "strides": { "list": { "i": ["1", "1", "1", "1"] } },
          "use_cudnn_on_gpu": { "b": true }
        }
      },
      {
        "name": "aspp0/Relu",
        "op": "Relu",
        "input": ["aspp0/BatchNorm/FusedBatchNorm"],
        "attr": { "T": { "type": "DT_FLOAT" } }
      },
      {
        "name": "image_pooling/BatchNorm/FusedBatchNorm",
        "op": "Add",
        "input": [
          "image_pooling/BatchNorm/FusedBatchNorm/Mul",
          "image_pooling/BatchNorm/FusedBatchNorm/Offset"
        ],
        "attr": { "T": { "type": "DT_FLOAT" } }
      },
      {
        "name": "image_pooling/Relu",
        "op": "Relu",
        "input": ["image_pooling/BatchNorm/FusedBatchNorm"],
        "attr": { "T": { "type": "DT_FLOAT" } }
      },
      {
        "name": "ResizeBilinear",
        "op": "ResizeBilinear",
        "input": ["image_pooling/Relu", "ResizeBilinear/size"],
        "attr": { "align_corners": { "b": true }, "T": { "type": "DT_FLOAT" } }
      },
      {
        "name": "concat",
        "op": "ConcatV2",
        "input": ["ResizeBilinear", "aspp0/Relu", "Assert/Assert/data_1"],
        "attr": {
          "T": { "type": "DT_FLOAT" },
          "N": { "i": "2" },
          "Tidx": { "type": "DT_INT32" }
        }
      },
      {
        "name": "concat_projection/BatchNorm/FusedBatchNorm/Mul",
        "op": "Conv2D",
        "input": ["concat", "concat_projection/Conv2D/merged_input"],
        "attr": {
          "dilations": { "list": { "i": ["1", "1", "1", "1"] } },
          "T": { "type": "DT_FLOAT" },
          "strides": { "list": { "i": ["1", "1", "1", "1"] } },
          "data_format": { "s": "TkhXQw==" },
          "use_cudnn_on_gpu": { "b": true },
          "padding": { "s": "U0FNRQ==" }
        }
      },
      {
        "name": "concat_projection/BatchNorm/FusedBatchNorm",
        "op": "Add",
        "input": [
          "concat_projection/BatchNorm/FusedBatchNorm/Mul",
          "concat_projection/BatchNorm/FusedBatchNorm/Offset"
        ],
        "attr": { "T": { "type": "DT_FLOAT" } }
      },
      {
        "name": "concat_projection/Relu",
        "op": "Relu",
        "input": ["concat_projection/BatchNorm/FusedBatchNorm"],
        "attr": { "T": { "type": "DT_FLOAT" } }
      },
      {
        "name": "logits/semantic/Conv2D",
        "op": "Conv2D",
        "input": ["concat_projection/Relu", "logits/semantic/weights"],
        "attr": {
          "dilations": { "list": { "i": ["1", "1", "1", "1"] } },
          "T": { "type": "DT_FLOAT" },
          "data_format": { "s": "TkhXQw==" },
          "strides": { "list": { "i": ["1", "1", "1", "1"] } },
          "use_cudnn_on_gpu": { "b": true },
          "padding": { "s": "U0FNRQ==" }
        }
      },
      {
        "name": "logits/semantic/BiasAdd",
        "op": "BiasAdd",
        "input": ["logits/semantic/Conv2D", "logits/semantic/biases"],
        "attr": {
          "T": { "type": "DT_FLOAT" },
          "data_format": { "s": "TkhXQw==" }
        }
      },
      {
        "name": "ResizeBilinear_1",
        "op": "ResizeBilinear",
        "input": ["logits/semantic/BiasAdd", "ResizeBilinear/size"],
        "attr": { "align_corners": { "b": true }, "T": { "type": "DT_FLOAT" } }
      },
      {
        "name": "ResizeBilinear_2",
        "op": "ResizeBilinear",
        "input": ["ResizeBilinear_1", "strided_slice_6"],
        "attr": { "align_corners": { "b": true }, "T": { "type": "DT_FLOAT" } }
      },
      {
        "name": "ArgMax",
        "op": "ArgMax",
        "input": ["ResizeBilinear_2", "Assert/Assert/data_1"],
        "attr": {
          "Tidx": { "type": "DT_INT32" },
          "T": { "type": "DT_FLOAT" },
          "output_type": { "type": "DT_INT64" }
        }
      },
      {
        "name": "Slice",
        "op": "Slice",
        "input": ["ArgMax", "Slice/begin", "Slice/size"],
        "attr": { "T": { "type": "DT_INT64" }, "Index": { "type": "DT_INT32" } }
      },
      {
        "name": "ExpandDims_1",
        "op": "ExpandDims",
        "input": ["Slice", "Assert/Assert/data_1"],
        "attr": { "Tdim": { "type": "DT_INT32" }, "T": { "type": "DT_INT64" } }
      },
      {
        "name": "resize_images/ResizeNearestNeighbor",
        "op": "ResizeNearestNeighbor",
        "input": ["ExpandDims_1", "strided_slice"],
        "attr": { "align_corners": { "b": true }, "T": { "type": "DT_INT64" } }
      },
      {
        "name": "Squeeze_1",
        "op": "Squeeze",
        "input": ["resize_images/ResizeNearestNeighbor"],
        "attr": {
          "squeeze_dims": { "list": { "i": ["3"] } },
          "T": { "type": "DT_INT64" }
        }
      },
      {
        "name": "SemanticPredictions",
        "op": "Identity",
        "input": ["Squeeze_1"],
        "attr": { "T": { "type": "DT_INT64" } }
      }
    ],
    "library": {},
    "versions": {}
  },
  "weightsManifest": [
    {
      "paths": ["group1-shard1of1"],
      "weights": [
        {
          "name": "strided_slice_2/stack",
          "shape": [1],
          "dtype": "int32",
          "quantization": { "min": 1.0, "scale": 1.0, "dtype": "uint16" }
        },
        {
          "name": "strided_slice/stack_1",
          "shape": [1],
          "dtype": "int32",
          "quantization": { "min": 3.0, "scale": 1.0, "dtype": "uint16" }
        },
        {
          "name": "Assert/Assert/data_1",
          "shape": [],
          "dtype": "int32",
          "quantization": { "min": 3.0, "scale": 1.0, "dtype": "uint16" }
        },
        {
          "name": "strided_slice_2/stack_1",
          "shape": [1],
          "dtype": "int32",
          "quantization": { "min": 2.0, "scale": 1.0, "dtype": "uint16" }
        },
        {
          "name": "strided_slice_1/stack",
          "shape": [1],
          "dtype": "int32",
          "quantization": { "min": 0.0, "scale": 1.0, "dtype": "uint16" }
        },
        {
          "name": "Slice/size/0",
          "shape": [],
          "dtype": "int32",
          "quantization": { "min": 1.0, "scale": 1.0, "dtype": "uint16" }
        },
        {
          "name": "Slice/begin",
          "shape": [3],
          "dtype": "int32",
          "quantization": { "min": 0.0, "scale": 1.0, "dtype": "uint16" }
        },
        {
          "name": "strided_slice_6",
          "shape": [2],
          "dtype": "int32",
          "quantization": { "min": 513.0, "scale": 1.0, "dtype": "uint16" }
        },
        {
          "name": "ResizeBilinear/size",
          "shape": [2],
          "dtype": "int32",
          "quantization": { "min": 65.0, "scale": 1.0, "dtype": "uint16" }
        },
        {
          "name": "logits/semantic/biases",
          "shape": [21],
          "dtype": "float32",
          "quantization": {
            "min": 0.08492910116910934,
            "scale": 2.3742665199117676e-5,
            "dtype": "uint16"
          }
        },
        {
          "name": "logits/semantic/weights",
          "shape": [1, 1, 256, 21],
          "dtype": "float32",
          "quantization": {
            "min": -0.5605166531394946,
            "scale": 1.743171056257175e-5,
            "dtype": "uint16"
          }
        },
        {
          "name": "concat_projection/BatchNorm/FusedBatchNorm/Offset",
          "shape": [256],
          "dtype": "float32",
          "quantization": {
            "min": -0.5607855671520063,
            "scale": 4.299843330409495e-5,
            "dtype": "uint16"
          }
        },
        {
          "name": "concat_projection/Conv2D/merged_input",
          "shape": [1, 1, 512, 256],
          "dtype": "float32",
          "quantization": {
            "min": -0.3288081695597459,
            "scale": 9.771126253595611e-6,
            "dtype": "uint16"
          }
        },
        {
          "name": "aspp0/BatchNorm/FusedBatchNorm/Offset",
          "shape": [256],
          "dtype": "float32",
          "quantization": {
            "min": -0.1504532988862987,
            "scale": 4.965947086718114e-6,
            "dtype": "uint16"
          }
        },
        {
          "name": "aspp0/Conv2D/merged_input",
          "shape": [1, 1, 160, 256],
          "dtype": "float32",
          "quantization": {
            "min": -0.11376522395606625,
            "scale": 3.4716272186776397e-6,
            "dtype": "uint16"
          }
        },
        {
          "name": "MobilenetV2/expanded_conv_16/project/BatchNorm/FusedBatchNorm/Offset",
          "shape": [160],
          "dtype": "float32",
          "quantization": {
            "min": -15.25590913326851,
            "scale": 0.0004689076112884128,
            "dtype": "uint16"
          }
        },
        {
          "name": "MobilenetV2/expanded_conv_16/project/Conv2D/merged_input",
          "shape": [1, 1, 480, 160],
          "dtype": "float32",
          "quantization": {
            "min": -0.8089501747934407,
            "scale": 2.4173021807662952e-5,
            "dtype": "uint16"
          }
        },
        {
          "name": "MobilenetV2/expanded_conv_16/depthwise/BatchNorm/FusedBatchNorm/Offset",
          "shape": [480],
          "dtype": "float32",
          "quantization": {
            "min": -4.004419145666326,
            "scale": 0.00018362156757457474,
            "dtype": "uint16"
          }
        },
        {
          "name": "MobilenetV2/expanded_conv_16/depthwise/BatchNorm/FusedBatchNorm/Scaled",
          "shape": [480],
          "dtype": "float32",
          "quantization": {
            "min": 0.2540507912635803,
            "scale": 0.0009223804172283908,
            "dtype": "uint16"
          }
        },
        {
          "name": "MobilenetV2/expanded_conv_15/depthwise/depthwise/BatchToSpaceND/crops",
          "shape": [2, 2],
          "dtype": "int32",
          "quantization": {
            "min": -0.0,
            "scale": 4.5777065690089265e-5,
            "dtype": "uint16"
          }
        },
        {
          "name": "MobilenetV2/expanded_conv_15/depthwise/depthwise/SpaceToBatchND/block_shape",
          "shape": [2],
          "dtype": "int32",
          "quantization": { "min": 4.0, "scale": 1.0, "dtype": "uint16" }
        },
        {
          "name": "MobilenetV2/expanded_conv_16/depthwise/depthwise_weights",
          "shape": [3, 3, 480, 1],
          "dtype": "float32",
          "quantization": {
            "min": -1.9566251618607309,
            "scale": 7.439356533442572e-5,
            "dtype": "uint16"
          }
        },
        {
          "name": "MobilenetV2/expanded_conv_15/depthwise/depthwise/SpaceToBatchND/paddings",
          "shape": [2, 2],
          "dtype": "int32",
          "quantization": {
            "min": 4.0,
            "scale": 4.5777065690089265e-5,
            "dtype": "uint16"
          }
        },
        {
          "name": "MobilenetV2/expanded_conv_16/expand/BatchNorm/FusedBatchNorm/Offset",
          "shape": [480],
          "dtype": "float32",
          "quantization": {
            "min": -2.6340962367117102,
            "scale": 7.18304992149576e-5,
            "dtype": "uint16"
          }
        },
        {
          "name": "MobilenetV2/expanded_conv_16/expand/Conv2D/merged_input",
          "shape": [1, 1, 80, 480],
          "dtype": "float32",
          "quantization": {
            "min": -0.21785892043104976,
            "scale": 6.023027298970163e-6,
            "dtype": "uint16"
          }
        },
        {
          "name": "MobilenetV2/expanded_conv_13/project/BatchNorm/FusedBatchNorm/Offset",
          "shape": [80],
          "dtype": "float32",
          "quantization": {
            "min": -20.41588074548881,
            "scale": 0.0005164393591391483,
            "dtype": "uint16"
          }
        },
        {
          "name": "MobilenetV2/expanded_conv_13/project/Conv2D/merged_input",
          "shape": [1, 1, 288, 80],
          "dtype": "float32",
          "quantization": {
            "min": -1.23233798278354,
            "scale": 3.3542133445387585e-5,
            "dtype": "uint16"
          }
        },
        {
          "name": "MobilenetV2/expanded_conv_13/depthwise/BatchNorm/FusedBatchNorm/Offset",
          "shape": [288],
          "dtype": "float32",
          "quantization": {
            "min": -6.596920203915211,
            "scale": 0.00017484548645415349,
            "dtype": "uint16"
          }
        },
        {
          "name": "MobilenetV2/expanded_conv_13/depthwise/BatchNorm/FusedBatchNorm/Scaled",
          "shape": [288],
          "dtype": "float32",
          "quantization": {
            "min": 0.11226188391447067,
            "scale": 0.0004988297579071474,
            "dtype": "uint16"
          }
        },
        {
          "name": "MobilenetV2/expanded_conv_12/depthwise/depthwise/BatchToSpaceND/crops",
          "shape": [2, 2],
          "dtype": "int32",
          "quantization": {
            "min": -0.0,
            "scale": 1.5259021896696422e-5,
            "dtype": "uint16"
          }
        },
        {
          "name": "MobilenetV2/expanded_conv_12/depthwise/depthwise/SpaceToBatchND/block_shape",
          "shape": [2],
          "dtype": "int32",
          "quantization": { "min": 2.0, "scale": 1.0, "dtype": "uint16" }
        },
        {
          "name": "MobilenetV2/expanded_conv_13/depthwise/depthwise_weights",
          "shape": [3, 3, 288, 1],
          "dtype": "float32",
          "quantization": {
            "min": -1.6834393008528181,
            "scale": 5.144513953038591e-5,
            "dtype": "uint16"
          }
        },
        {
          "name": "MobilenetV2/expanded_conv_12/depthwise/depthwise/SpaceToBatchND/paddings",
          "shape": [2, 2],
          "dtype": "int32",
          "quantization": {
            "min": 2.0,
            "scale": 1.5259021896696422e-5,
            "dtype": "uint16"
          }
        },
        {
          "name": "MobilenetV2/expanded_conv_13/expand/BatchNorm/FusedBatchNorm/Offset",
          "shape": [288],
          "dtype": "float32",
          "quantization": {
            "min": -3.6127142108258896,
            "scale": 9.549108478909654e-5,
            "dtype": "uint16"
          }
        },
        {
          "name": "MobilenetV2/expanded_conv_13/expand/Conv2D/merged_input",
          "shape": [1, 1, 48, 288],
          "dtype": "float32",
          "quantization": {
            "min": -0.21251545423745402,
            "scale": 9.155807773790617e-6,
            "dtype": "uint16"
          }
        },
        {
          "name": "MobilenetV2/expanded_conv_10/project/BatchNorm/FusedBatchNorm/Offset",
          "shape": [48],
          "dtype": "float32",
          "quantization": {
            "min": -6.639028587495561,
            "scale": 0.0002903195988934564,
            "dtype": "uint16"
          }
        },
        {
          "name": "MobilenetV2/expanded_conv_10/project/Conv2D/merged_input",
          "shape": [1, 1, 192, 48],
          "dtype": "float32",
          "quantization": {
            "min": -1.710156153104594,
            "scale": 4.628548644323357e-5,
            "dtype": "uint16"
          }
        },
        {
          "name": "MobilenetV2/expanded_conv_10/depthwise/BatchNorm/FusedBatchNorm/Offset",
          "shape": [192],
          "dtype": "float32",
          "quantization": {
            "min": -4.255039576271938,
            "scale": 0.00022347896934201355,
            "dtype": "uint16"
          }
        },
        {
          "name": "MobilenetV2/expanded_conv_10/depthwise/BatchNorm/FusedBatchNorm/Scaled",
          "shape": [192],
          "dtype": "float32",
          "quantization": {
            "min": 0.10782443732023239,
            "scale": 2.1053139187700827e-5,
            "dtype": "uint16"
          }
        },
        {
          "name": "MobilenetV2/expanded_conv_10/depthwise/depthwise_weights",
          "shape": [3, 3, 192, 1],
          "dtype": "float32",
          "quantization": {
            "min": -4.790701405611138,
            "scale": 0.00014884888630141798,
            "dtype": "uint16"
          }
        },
        {
          "name": "MobilenetV2/expanded_conv_10/expand/BatchNorm/FusedBatchNorm/Offset",
          "shape": [192],
          "dtype": "float32",
          "quantization": {
            "min": -1.425360929792257,
            "scale": 7.075156010087645e-5,
            "dtype": "uint16"
          }
        },
        {
          "name": "MobilenetV2/expanded_conv_10/expand/Conv2D/merged_input",
          "shape": [1, 1, 32, 192],
          "dtype": "float32",
          "quantization": {
            "min": -0.2378499943549567,
            "scale": 6.676303664597674e-6,
            "dtype": "uint16"
          }
        },
        {
          "name": "MobilenetV2/expanded_conv_6/project/BatchNorm/FusedBatchNorm/Offset",
          "shape": [32],
          "dtype": "float32",
          "quantization": {
            "min": -20.105598605240274,
            "scale": 0.000565590148678977,
            "dtype": "uint16"
          }
        },
        {
          "name": "MobilenetV2/expanded_conv_6/project/Conv2D/merged_input",
          "shape": [1, 1, 96, 32],
          "dtype": "float32",
          "quantization": {
            "min": -1.94889264226078,
            "scale": 7.907541354624605e-5,
            "dtype": "uint16"
          }
        },
        {
          "name": "MobilenetV2/expanded_conv_6/depthwise/BatchNorm/FusedBatchNorm/Offset",
          "shape": [96],
          "dtype": "float32",
          "quantization": {
            "min": -0.6824497800447434,
            "scale": 0.00012589001661035665,
            "dtype": "uint16"
          }
        },
        {
          "name": "MobilenetV2/expanded_conv_6/depthwise/BatchNorm/FusedBatchNorm/Scaled",
          "shape": [96],
          "dtype": "float32",
          "quantization": {
            "min": 0.07390841096639633,
            "scale": 1.0326415461807036e-5,
            "dtype": "uint16"
          }
        },
        {
          "name": "MobilenetV2/expanded_conv_6/depthwise/depthwise_weights",
          "shape": [3, 3, 96, 1],
          "dtype": "float32",
          "quantization": {
            "min": -2.4726505847801974,
            "scale": 7.950644967138899e-5,
            "dtype": "uint16"
          }
        },
        {
          "name": "MobilenetV2/expanded_conv_6/expand/BatchNorm/FusedBatchNorm/Offset",
          "shape": [96],
          "dtype": "float32",
          "quantization": {
            "min": -2.123831726108271,
            "scale": 8.04298919226036e-5,
            "dtype": "uint16"
          }
        },
        {
          "name": "MobilenetV2/expanded_conv_6/expand/Conv2D/merged_input",
          "shape": [1, 1, 16, 96],
          "dtype": "float32",
          "quantization": {
            "min": -0.22320071460703758,
            "scale": 6.2323936728851975e-6,
            "dtype": "uint16"
          }
        },
        {
          "name": "MobilenetV2/expanded_conv_3/project/BatchNorm/FusedBatchNorm/Offset",
          "shape": [16],
          "dtype": "float32",
          "quantization": {
            "min": -19.796261707217724,
            "scale": 0.0005743707336858853,
            "dtype": "uint16"
          }
        },
        {
          "name": "MobilenetV2/expanded_conv_3/project/Conv2D/merged_input",
          "shape": [1, 1, 72, 16],
          "dtype": "float32",
          "quantization": {
            "min": -3.0283893323266606,
            "scale": 9.315827895676943e-5,
            "dtype": "uint16"
          }
        },
        {
          "name": "MobilenetV2/expanded_conv_3/depthwise/BatchNorm/FusedBatchNorm/Offset",
          "shape": [72],
          "dtype": "float32",
          "quantization": {
            "min": -1.497815150003862,
            "scale": 0.0001449966263314484,
            "dtype": "uint16"
          }
        },
        {
          "name": "MobilenetV2/expanded_conv_3/depthwise/BatchNorm/FusedBatchNorm/Scaled",
          "shape": [72],
          "dtype": "float32",
          "quantization": {
            "min": 0.039049215614795685,
            "scale": 1.182527673356346e-5,
            "dtype": "uint16"
          }
        },
        {
          "name": "MobilenetV2/expanded_conv_3/depthwise/depthwise_weights",
          "shape": [3, 3, 72, 1],
          "dtype": "float32",
          "quantization": {
            "min": -2.5924127495060563,
            "scale": 8.376943643991522e-5,
            "dtype": "uint16"
          }
        },
        {
          "name": "MobilenetV2/expanded_conv_3/expand/BatchNorm/FusedBatchNorm/Offset",
          "shape": [72],
          "dtype": "float32",
          "quantization": {
            "min": -1.2148967402727333,
            "scale": 9.065717038077257e-5,
            "dtype": "uint16"
          }
        },
        {
          "name": "MobilenetV2/expanded_conv_3/expand/Conv2D/merged_input",
          "shape": [1, 1, 12, 72],
          "dtype": "float32",
          "quantization": {
            "min": -2.382114162277355,
            "scale": 4.58575089954444e-5,
            "dtype": "uint16"
          }
        },
        {
          "name": "MobilenetV2/expanded_conv_1/project/BatchNorm/FusedBatchNorm/Offset",
          "shape": [12],
          "dtype": "float32",
          "quantization": {
            "min": -10.412448611164507,
            "scale": 0.00045556740510870264,
            "dtype": "uint16"
          }
        },
        {
          "name": "MobilenetV2/expanded_conv_1/project/Conv2D/merged_input",
          "shape": [1, 1, 48, 12],
          "dtype": "float32",
          "quantization": {
            "min": -2.91261043827985,
            "scale": 9.373142943553615e-5,
            "dtype": "uint16"
          }
        },
        {
          "name": "MobilenetV2/expanded_conv_1/depthwise/BatchNorm/FusedBatchNorm/Offset",
          "shape": [48],
          "dtype": "float32",
          "quantization": {
            "min": -9.697725932967556,
            "scale": 0.00027534713040793744,
            "dtype": "uint16"
          }
        },
        {
          "name": "MobilenetV2/expanded_conv_1/depthwise/BatchNorm/FusedBatchNorm/Scaled",
          "shape": [48],
          "dtype": "float32",
          "quantization": {
            "min": 0.041718050837516785,
            "scale": 1.0038082710781842e-5,
            "dtype": "uint16"
          }
        },
        {
          "name": "MobilenetV2/expanded_conv_1/depthwise/depthwise_weights",
          "shape": [3, 3, 48, 1],
          "dtype": "float32",
          "quantization": {
            "min": -7.578136492375789,
            "scale": 0.00019855726280919636,
            "dtype": "uint16"
          }
        },
        {
          "name": "MobilenetV2/expanded_conv_1/expand/BatchNorm/FusedBatchNorm/Offset",
          "shape": [48],
          "dtype": "float32",
          "quantization": {
            "min": -3.034229073728569,
            "scale": 0.00010700483402907917,
            "dtype": "uint16"
          }
        },
        {
          "name": "MobilenetV2/expanded_conv_1/expand/Conv2D/merged_input",
          "shape": [1, 1, 8, 48],
          "dtype": "float32",
          "quantization": {
            "min": -0.45306399879934334,
            "scale": 1.4270631183045966e-5,
            "dtype": "uint16"
          }
        },
        {
          "name": "MobilenetV2/expanded_conv/project/BatchNorm/FusedBatchNorm/Offset",
          "shape": [8],
          "dtype": "float32",
          "quantization": {
            "min": -36.07572805798008,
            "scale": 0.0010328893995470575,
            "dtype": "uint16"
          }
        },
        {
          "name": "MobilenetV2/expanded_conv/project/Conv2D/merged_input",
          "shape": [1, 1, 16, 8],
          "dtype": "float32",
          "quantization": {
            "min": -7.954147938284273,
            "scale": 0.00023547612239214523,
            "dtype": "uint16"
          }
        },
        {
          "name": "MobilenetV2/expanded_conv/depthwise/BatchNorm/FusedBatchNorm/Offset",
          "shape": [16],
          "dtype": "float32",
          "quantization": {
            "min": -1.9606252744867787,
            "scale": 0.00012248549225256318,
            "dtype": "uint16"
          }
        },
        {
          "name": "MobilenetV2/expanded_conv/depthwise/BatchNorm/FusedBatchNorm/Scaled",
          "shape": [16],
          "dtype": "float32",
          "quantization": {
            "min": -0.5567410303360903,
            "scale": 0.00021009095484380766,
            "dtype": "uint16"
          }
        },
        {
          "name": "MobilenetV2/expanded_conv/depthwise/depthwise_weights",
          "shape": [3, 3, 16, 1],
          "dtype": "float32",
          "quantization": {
            "min": -19.542136674361327,
            "scale": 0.0005437282400145051,
            "dtype": "uint16"
          }
        },
        {
          "name": "MobilenetV2/Conv/BatchNorm/FusedBatchNorm/Offset",
          "shape": [16],
          "dtype": "float32",
          "quantization": {
            "min": -0.6231550818978671,
            "scale": 9.249741456106087e-5,
            "dtype": "uint16"
          }
        },
        {
          "name": "MobilenetV2/Conv/Conv2D/merged_input",
          "shape": [3, 3, 3, 16],
          "dtype": "float32",
          "quantization": {
            "min": -8.964980407156624,
            "scale": 0.0002996016578269767,
            "dtype": "uint16"
          }
        },
        {
          "name": "sub_7/y",
          "shape": [],
          "dtype": "float32",
          "quantization": { "min": 1.0, "scale": 1.0, "dtype": "uint16" }
        },
        {
          "name": "stack/0",
          "shape": [],
          "dtype": "int32",
          "quantization": { "min": 0.0, "scale": 1.0, "dtype": "uint16" }
        },
        {
          "name": "Reshape",
          "shape": [1, 1, 3],
          "dtype": "float32",
          "quantization": { "min": 127.5, "scale": 1.0, "dtype": "uint16" }
        },
        {
          "name": "stack_2",
          "shape": [2],
          "dtype": "int32",
          "quantization": { "min": 0.0, "scale": 1.0, "dtype": "uint16" }
        },
        {
          "name": "sub_1/x",
          "shape": [],
          "dtype": "int32",
          "quantization": { "min": 513.0, "scale": 1.0, "dtype": "uint16" }
        },
        {
          "name": "mul/x",
          "shape": [],
          "dtype": "float32",
          "quantization": {
            "min": 0.007843137718737125,
            "scale": 1.0,
            "dtype": "uint16"
          }
        },
        {
          "name": "MobilenetV2/expanded_conv_2/project/Conv2D/merged_input",
          "shape": [1, 1, 72, 12],
          "dtype": "float32",
          "quantization": {
            "min": -4.710392230237532,
            "scale": 0.00018126653699059231,
            "dtype": "uint16"
          }
        },
        {
          "name": "MobilenetV2/expanded_conv_2/depthwise/BatchNorm/FusedBatchNorm/Offset",
          "shape": [72],
          "dtype": "float32",
          "quantization": {
            "min": -3.719578709918501,
            "scale": 0.0002923277829234911,
            "dtype": "uint16"
          }
        },
        {
          "name": "MobilenetV2/expanded_conv_2/depthwise/BatchNorm/FusedBatchNorm/Scaled",
          "shape": [72],
          "dtype": "float32",
          "quantization": {
            "min": 0.07730792462825775,
            "scale": 1.5067223135753982e-5,
            "dtype": "uint16"
          }
        },
        {
          "name": "MobilenetV2/expanded_conv_2/depthwise/depthwise_weights",
          "shape": [3, 3, 72, 1],
          "dtype": "float32",
          "quantization": {
            "min": -6.62818209766805,
            "scale": 0.0002338808079628811,
            "dtype": "uint16"
          }
        },
        {
          "name": "MobilenetV2/expanded_conv_2/expand/BatchNorm/FusedBatchNorm/Offset",
          "shape": [72],
          "dtype": "float32",
          "quantization": {
            "min": -1.9376969875528656,
            "scale": 0.00010661918056304972,
            "dtype": "uint16"
          }
        },
        {
          "name": "MobilenetV2/expanded_conv_2/expand/Conv2D/merged_input",
          "shape": [1, 1, 12, 72],
          "dtype": "float32",
          "quantization": {
            "min": -0.727732123229563,
            "scale": 2.1539457859159506e-5,
            "dtype": "uint16"
          }
        },
        {
          "name": "MobilenetV2/expanded_conv_2/project/BatchNorm/FusedBatchNorm/Offset",
          "shape": [12],
          "dtype": "float32",
          "quantization": {
            "min": -18.614591663820736,
            "scale": 0.0008519653834876074,
            "dtype": "uint16"
          }
        },
        {
          "name": "MobilenetV2/expanded_conv_4/project/Conv2D/merged_input",
          "shape": [1, 1, 96, 16],
          "dtype": "float32",
          "quantization": {
            "min": -1.4399812553861535,
            "scale": 5.2173233890802664e-5,
            "dtype": "uint16"
          }
        },
        {
          "name": "MobilenetV2/expanded_conv_4/depthwise/BatchNorm/FusedBatchNorm/Offset",
          "shape": [96],
          "dtype": "float32",
          "quantization": {
            "min": -31.936445651742336,
            "scale": 0.000580757681288617,
            "dtype": "uint16"
          }
        },
        {
          "name": "MobilenetV2/expanded_conv_4/depthwise/BatchNorm/FusedBatchNorm/Scaled",
          "shape": [96],
          "dtype": "float32",
          "quantization": {
            "min": 0.21237951517105103,
            "scale": 8.53899469853648e-5,
            "dtype": "uint16"
          }
        },
        {
          "name": "MobilenetV2/expanded_conv_4/depthwise/depthwise_weights",
          "shape": [3, 3, 96, 1],
          "dtype": "float32",
          "quantization": {
            "min": -7.397577584441943,
            "scale": 0.0001899298463231904,
            "dtype": "uint16"
          }
        },
        {
          "name": "MobilenetV2/expanded_conv_4/expand/BatchNorm/FusedBatchNorm/Offset",
          "shape": [96],
          "dtype": "float32",
          "quantization": {
            "min": -2.8616097390301545,
            "scale": 0.00010114911947368967,
            "dtype": "uint16"
          }
        },
        {
          "name": "MobilenetV2/expanded_conv_4/expand/Conv2D/merged_input",
          "shape": [1, 1, 16, 96],
          "dtype": "float32",
          "quantization": {
            "min": -0.20339087046756163,
            "scale": 6.033905021584242e-6,
            "dtype": "uint16"
          }
        },
        {
          "name": "MobilenetV2/expanded_conv_4/project/BatchNorm/FusedBatchNorm/Offset",
          "shape": [16],
          "dtype": "float32",
          "quantization": {
            "min": -7.192529815076608,
            "scale": 0.00019876004684214244,
            "dtype": "uint16"
          }
        },
        {
          "name": "MobilenetV2/expanded_conv_5/project/Conv2D/merged_input",
          "shape": [1, 1, 96, 16],
          "dtype": "float32",
          "quantization": {
            "min": -2.1249879768059,
            "scale": 6.745993577161588e-5,
            "dtype": "uint16"
          }
        },
        {
          "name": "MobilenetV2/expanded_conv_5/depthwise/BatchNorm/FusedBatchNorm/Offset",
          "shape": [96],
          "dtype": "float32",
          "quantization": {
            "min": -4.768758471417574,
            "scale": 0.000152683330817327,
            "dtype": "uint16"
          }
        },
        {
          "name": "MobilenetV2/expanded_conv_5/depthwise/BatchNorm/FusedBatchNorm/Scaled",
          "shape": [96],
          "dtype": "float32",
          "quantization": {
            "min": 0.1590801477432251,
            "scale": 2.7326634576503096e-5,
            "dtype": "uint16"
          }
        },
        {
          "name": "MobilenetV2/expanded_conv_5/depthwise/depthwise_weights",
          "shape": [3, 3, 96, 1],
          "dtype": "float32",
          "quantization": {
            "min": -5.1608422625844295,
            "scale": 0.00015967458502473406,
            "dtype": "uint16"
          }
        },
        {
          "name": "MobilenetV2/expanded_conv_5/expand/BatchNorm/FusedBatchNorm/Offset",
          "shape": [96],
          "dtype": "float32",
          "quantization": {
            "min": -2.9305263383079105,
            "scale": 9.129365539900032e-5,
            "dtype": "uint16"
          }
        },
        {
          "name": "MobilenetV2/expanded_conv_5/expand/Conv2D/merged_input",
          "shape": [1, 1, 16, 96],
          "dtype": "float32",
          "quantization": {
            "min": -0.20113096822769716,
            "scale": 6.3516379785163e-6,
            "dtype": "uint16"
          }
        },
        {
          "name": "MobilenetV2/expanded_conv_5/project/BatchNorm/FusedBatchNorm/Offset",
          "shape": [16],
          "dtype": "float32",
          "quantization": {
            "min": -15.619448586758827,
            "scale": 0.00040753120741928215,
            "dtype": "uint16"
          }
        },
        {
          "name": "MobilenetV2/expanded_conv_7/project/BatchNorm/FusedBatchNorm/Offset",
          "shape": [32],
          "dtype": "float32",
          "quantization": {
            "min": -9.76818589421298,
            "scale": 0.0002210697029424021,
            "dtype": "uint16"
          }
        },
        {
          "name": "MobilenetV2/expanded_conv_7/project/Conv2D/merged_input",
          "shape": [1, 1, 192, 32],
          "dtype": "float32",
          "quantization": {
            "min": -1.6407931117832482,
            "scale": 5.186638570517617e-5,
            "dtype": "uint16"
          }
        },
        {
          "name": "MobilenetV2/expanded_conv_7/depthwise/BatchNorm/FusedBatchNorm/Offset",
          "shape": [192],
          "dtype": "float32",
          "quantization": {
            "min": -79.45297126634684,
            "scale": 0.0013565703916124032,
            "dtype": "uint16"
          }
        },
        {
          "name": "MobilenetV2/expanded_conv_7/depthwise/BatchNorm/FusedBatchNorm/Scaled",
          "shape": [192],
          "dtype": "float32",
          "quantization": {
            "min": 0.18888242542743683,
            "scale": 0.00015285434639771307,
            "dtype": "uint16"
          }
        },
        {
          "name": "MobilenetV2/expanded_conv_7/depthwise/depthwise_weights",
          "shape": [3, 3, 192, 1],
          "dtype": "float32",
          "quantization": {
            "min": -3.9434982901390043,
            "scale": 0.00012398988492812464,
            "dtype": "uint16"
          }
        },
        {
          "name": "MobilenetV2/expanded_conv_7/expand/BatchNorm/FusedBatchNorm/Offset",
          "shape": [192],
          "dtype": "float32",
          "quantization": {
            "min": -2.132251303941932,
            "scale": 8.33822659135747e-5,
            "dtype": "uint16"
          }
        },
        {
          "name": "MobilenetV2/expanded_conv_7/expand/Conv2D/merged_input",
          "shape": [1, 1, 32, 192],
          "dtype": "float32",
          "quantization": {
            "min": -0.20527009025990323,
            "scale": 5.958666151699708e-6,
            "dtype": "uint16"
          }
        },
        {
          "name": "MobilenetV2/expanded_conv_8/project/BatchNorm/FusedBatchNorm/Offset",
          "shape": [32],
          "dtype": "float32",
          "quantization": {
            "min": -4.407061098012461,
            "scale": 0.0001567177944600996,
            "dtype": "uint16"
          }
        },
        {
          "name": "MobilenetV2/expanded_conv_8/project/Conv2D/merged_input",
          "shape": [1, 1, 192, 32],
          "dtype": "float32",
          "quantization": {
            "min": -1.945520363525585,
            "scale": 5.055663332273752e-5,
            "dtype": "uint16"
          }
        },
        {
          "name": "MobilenetV2/expanded_conv_8/depthwise/BatchNorm/FusedBatchNorm/Offset",
          "shape": [192],
          "dtype": "float32",
          "quantization": {
            "min": -24.797746493507688,
            "scale": 0.0005189115780846172,
            "dtype": "uint16"
          }
        },
        {
          "name": "MobilenetV2/expanded_conv_8/depthwise/BatchNorm/FusedBatchNorm/Scaled",
          "shape": [192],
          "dtype": "float32",
          "quantization": {
            "min": 0.12005122750997543,
            "scale": 7.954960278390774e-5,
            "dtype": "uint16"
          }
        },
        {
          "name": "MobilenetV2/expanded_conv_8/depthwise/depthwise_weights",
          "shape": [3, 3, 192, 1],
          "dtype": "float32",
          "quantization": {
            "min": -4.722652435124471,
            "scale": 0.0001311155899698623,
            "dtype": "uint16"
          }
        },
        {
          "name": "MobilenetV2/expanded_conv_8/expand/BatchNorm/FusedBatchNorm/Offset",
          "shape": [192],
          "dtype": "float32",
          "quantization": {
            "min": -1.2567627192507658,
            "scale": 5.447369941705023e-5,
            "dtype": "uint16"
          }
        },
        {
          "name": "MobilenetV2/expanded_conv_8/expand/Conv2D/merged_input",
          "shape": [1, 1, 32, 192],
          "dtype": "float32",
          "quantization": {
            "min": -0.1595101561541414,
            "scale": 4.7888005089958096e-6,
            "dtype": "uint16"
          }
        },
        {
          "name": "MobilenetV2/expanded_conv_9/project/BatchNorm/FusedBatchNorm/Offset",
          "shape": [32],
          "dtype": "float32",
          "quantization": {
            "min": -6.011254345882291,
            "scale": 0.00022335876141204217,
            "dtype": "uint16"
          }
        },
        {
          "name": "MobilenetV2/expanded_conv_9/project/Conv2D/merged_input",
          "shape": [1, 1, 192, 32],
          "dtype": "float32",
          "quantization": {
            "min": -2.2561175042380364,
            "scale": 7.014854499838432e-5,
            "dtype": "uint16"
          }
        },
        {
          "name": "MobilenetV2/expanded_conv_9/depthwise/BatchNorm/FusedBatchNorm/Offset",
          "shape": [192],
          "dtype": "float32",
          "quantization": {
            "min": -6.376243239001351,
            "scale": 0.00014945254169795028,
            "dtype": "uint16"
          }
        },
        {
          "name": "MobilenetV2/expanded_conv_9/depthwise/BatchNorm/FusedBatchNorm/Scaled",
          "shape": [192],
          "dtype": "float32",
          "quantization": {
            "min": 0.2685115933418274,
            "scale": 4.889039632393128e-5,
            "dtype": "uint16"
          }
        },
        {
          "name": "MobilenetV2/expanded_conv_9/depthwise/depthwise_weights",
          "shape": [3, 3, 192, 1],
          "dtype": "float32",
          "quantization": {
            "min": -4.433707795718301,
            "scale": 0.00011251637598574549,
            "dtype": "uint16"
          }
        },
        {
          "name": "MobilenetV2/expanded_conv_9/expand/BatchNorm/FusedBatchNorm/Offset",
          "shape": [192],
          "dtype": "float32",
          "quantization": {
            "min": -1.424122230242817,
            "scale": 5.010280855061979e-5,
            "dtype": "uint16"
          }
        },
        {
          "name": "MobilenetV2/expanded_conv_9/expand/Conv2D/merged_input",
          "shape": [1, 1, 32, 192],
          "dtype": "float32",
          "quantization": {
            "min": -0.14366867510070241,
            "scale": 4.721904788690673e-6,
            "dtype": "uint16"
          }
        },
        {
          "name": "MobilenetV2/expanded_conv_11/project/BatchNorm/FusedBatchNorm/Offset",
          "shape": [48],
          "dtype": "float32",
          "quantization": {
            "min": -7.204642195296685,
            "scale": 0.00025131303876436045,
            "dtype": "uint16"
          }
        },
        {
          "name": "MobilenetV2/expanded_conv_11/project/Conv2D/merged_input",
          "shape": [1, 1, 288, 48],
          "dtype": "float32",
          "quantization": {
            "min": -1.4582746033447689,
            "scale": 3.8405967957460335e-5,
            "dtype": "uint16"
          }
        },
        {
          "name": "MobilenetV2/expanded_conv_11/depthwise/BatchNorm/FusedBatchNorm/Offset",
          "shape": [288],
          "dtype": "float32",
          "quantization": {
            "min": -24.617921418853363,
            "scale": 0.00045788005986893633,
            "dtype": "uint16"
          }
        },
        {
          "name": "MobilenetV2/expanded_conv_11/depthwise/BatchNorm/FusedBatchNorm/Scaled",
          "shape": [288],
          "dtype": "float32",
          "quantization": {
            "min": 0.32237643003463745,
            "scale": 0.0003269363461019537,
            "dtype": "uint16"
          }
        },
        {
          "name": "MobilenetV2/expanded_conv_11/depthwise/depthwise_weights",
          "shape": [3, 3, 288, 1],
          "dtype": "float32",
          "quantization": {
            "min": -3.47583661974727,
            "scale": 0.00010283540295110266,
            "dtype": "uint16"
          }
        },
        {
          "name": "MobilenetV2/expanded_conv_11/expand/BatchNorm/FusedBatchNorm/Offset",
          "shape": [288],
          "dtype": "float32",
          "quantization": {
            "min": -1.6802631972992441,
            "scale": 6.176075855690818e-5,
            "dtype": "uint16"
          }
        },
        {
          "name": "MobilenetV2/expanded_conv_11/expand/Conv2D/merged_input",
          "shape": [1, 1, 48, 288],
          "dtype": "float32",
          "quantization": {
            "min": -0.19111504245561092,
            "scale": 6.4541907553142725e-6,
            "dtype": "uint16"
          }
        },
        {
          "name": "MobilenetV2/expanded_conv_12/project/BatchNorm/FusedBatchNorm/Offset",
          "shape": [48],
          "dtype": "float32",
          "quantization": {
            "min": -20.978629094853847,
            "scale": 0.0006024014097589045,
            "dtype": "uint16"
          }
        },
        {
          "name": "MobilenetV2/expanded_conv_12/project/Conv2D/merged_input",
          "shape": [1, 1, 288, 48],
          "dtype": "float32",
          "quantization": {
            "min": -1.424930346969828,
            "scale": 5.229869878036512e-5,
            "dtype": "uint16"
          }
        },
        {
          "name": "MobilenetV2/expanded_conv_12/depthwise/BatchNorm/FusedBatchNorm/Offset",
          "shape": [288],
          "dtype": "float32",
          "quantization": {
            "min": -12.065947542418293,
            "scale": 0.0002836110272287113,
            "dtype": "uint16"
          }
        },
        {
          "name": "MobilenetV2/expanded_conv_12/depthwise/BatchNorm/FusedBatchNorm/Scaled",
          "shape": [288],
          "dtype": "float32",
          "quantization": {
            "min": 0.21292683482170105,
            "scale": 5.64299655140715e-5,
            "dtype": "uint16"
          }
        },
        {
          "name": "MobilenetV2/expanded_conv_12/depthwise/depthwise_weights",
          "shape": [3, 3, 288, 1],
          "dtype": "float32",
          "quantization": {
            "min": -3.402790112254221,
            "scale": 0.00011464153737127622,
            "dtype": "uint16"
          }
        },
        {
          "name": "MobilenetV2/expanded_conv_12/expand/BatchNorm/FusedBatchNorm/Offset",
          "shape": [288],
          "dtype": "float32",
          "quantization": {
            "min": -1.9639883681621306,
            "scale": 6.901115176788119e-5,
            "dtype": "uint16"
          }
        },
        {
          "name": "MobilenetV2/expanded_conv_12/expand/Conv2D/merged_input",
          "shape": [1, 1, 48, 288],
          "dtype": "float32",
          "quantization": {
            "min": -0.18922544064579633,
            "scale": 5.518385553974813e-6,
            "dtype": "uint16"
          }
        },
        {
          "name": "MobilenetV2/expanded_conv_14/project/BatchNorm/FusedBatchNorm/Offset",
          "shape": [80],
          "dtype": "float32",
          "quantization": {
            "min": -5.602508039744429,
            "scale": 0.00018750654438717593,
            "dtype": "uint16"
          }
        },
        {
          "name": "MobilenetV2/expanded_conv_14/project/Conv2D/merged_input",
          "shape": [1, 1, 480, 80],
          "dtype": "float32",
          "quantization": {
            "min": -0.8965097116643652,
            "scale": 2.7673469306839278e-5,
            "dtype": "uint16"
          }
        },
        {
          "name": "MobilenetV2/expanded_conv_14/depthwise/BatchNorm/FusedBatchNorm/Offset",
          "shape": [480],
          "dtype": "float32",
          "quantization": {
            "min": -8.531869158501427,
            "scale": 0.00024164809127089323,
            "dtype": "uint16"
          }
        },
        {
          "name": "MobilenetV2/expanded_conv_14/depthwise/BatchNorm/FusedBatchNorm/Scaled",
          "shape": [480],
          "dtype": "float32",
          "quantization": {
            "min": 0.28892982006073,
            "scale": 9.734143815724902e-5,
            "dtype": "uint16"
          }
        },
        {
          "name": "MobilenetV2/expanded_conv_14/depthwise/depthwise_weights",
          "shape": [3, 3, 480, 1],
          "dtype": "float32",
          "quantization": {
            "min": -4.527273214189886,
            "scale": 0.00012740679952130034,
            "dtype": "uint16"
          }
        },
        {
          "name": "MobilenetV2/expanded_conv_14/expand/BatchNorm/FusedBatchNorm/Offset",
          "shape": [480],
          "dtype": "float32",
          "quantization": {
            "min": -1.5914031639882755,
            "scale": 7.698723641760319e-5,
            "dtype": "uint16"
          }
        },
        {
          "name": "MobilenetV2/expanded_conv_14/expand/Conv2D/merged_input",
          "shape": [1, 1, 80, 480],
          "dtype": "float32",
          "quantization": {
            "min": -0.2313872111135156,
            "scale": 9.829950767386702e-6,
            "dtype": "uint16"
          }
        },
        {
          "name": "MobilenetV2/expanded_conv_15/project/BatchNorm/FusedBatchNorm/Offset",
          "shape": [80],
          "dtype": "float32",
          "quantization": {
            "min": -8.919747965085003,
            "scale": 0.0003050216450119688,
            "dtype": "uint16"
          }
        },
        {
          "name": "MobilenetV2/expanded_conv_15/project/Conv2D/merged_input",
          "shape": [1, 1, 480, 80],
          "dtype": "float32",
          "quantization": {
            "min": -3.039522892093462,
            "scale": 7.865852937460436e-5,
            "dtype": "uint16"
          }
        },
        {
          "name": "MobilenetV2/expanded_conv_15/depthwise/BatchNorm/FusedBatchNorm/Offset",
          "shape": [480],
          "dtype": "float32",
          "quantization": {
            "min": -13.019416799186578,
            "scale": 0.0003023060997791018,
            "dtype": "uint16"
          }
        },
        {
          "name": "MobilenetV2/expanded_conv_15/depthwise/BatchNorm/FusedBatchNorm/Scaled",
          "shape": [480],
          "dtype": "float32",
          "quantization": {
            "min": 0.12328962981700897,
            "scale": 0.0006908151819566444,
            "dtype": "uint16"
          }
        },
        {
          "name": "MobilenetV2/expanded_conv_15/depthwise/depthwise_weights",
          "shape": [3, 3, 480, 1],
          "dtype": "float32",
          "quantization": {
            "min": -4.173271182473449,
            "scale": 0.00012181176831504523,
            "dtype": "uint16"
          }
        },
        {
          "name": "MobilenetV2/expanded_conv_15/expand/BatchNorm/FusedBatchNorm/Offset",
          "shape": [480],
          "dtype": "float32",
          "quantization": {
            "min": -1.9754292764334092,
            "scale": 6.162047777258123e-5,
            "dtype": "uint16"
          }
        },
        {
          "name": "MobilenetV2/expanded_conv_15/expand/Conv2D/merged_input",
          "shape": [1, 1, 80, 480],
          "dtype": "float32",
          "quantization": {
            "min": -0.18420349289389215,
            "scale": 5.827196004362158e-6,
            "dtype": "uint16"
          }
        },
        {
          "name": "image_pooling/BatchNorm/FusedBatchNorm/Offset",
          "shape": [256],
          "dtype": "float32",
          "quantization": {
            "min": -0.19377236967070605,
            "scale": 7.577817436576827e-6,
            "dtype": "uint16"
          }
        },
        {
          "name": "image_pooling/Conv2D/merged_input",
          "shape": [1, 1, 160, 256],
          "dtype": "float32",
          "quantization": {
            "min": -0.32730812245342256,
            "scale": 9.936795969926912e-6,
            "dtype": "uint16"
          }
        }
      ]
    }
  ]
}
